lab4/code/trained_dbn/dbn.vis--hid.bias_v.npy (npy, 6400 bytes, 1 tensors)

array f8 [784]
0.009773821649231844 0.009523825342737909 -0.002487168513199391 0.010652657988403766 0.0036870228046253727 -0.002122791091633643 0.001387390238305006 -0.008208966738594746
0.006619647768948445 -0.006101772097576813 0.00085440796298501 0.013466115552675337 0.01084530928392184 -0.007274452827195347 -0.0024293977843650016 0.014150134619045948
0.0013485709969694173 0.009660770350165928 -0.009563984672814187 -0.002600290743782063 0.009615775870145322 0.00687171605548637 0.008456621743797226 0.01291850243274958
-0.0002594821019733745 0.004181872042724401 0.0006016372795541495 -0.009860819256859733 0.016612955097954633 -0.008631914259868758 0.011552935775463688 0.015878400704666534
-0.0004144151236535847 -0.0026995546101494967 -0.007097242965212541 0.003027800458169039 0.0024249770262778744 0.01049599770892943 0.0052307054121264775 -0.005408125115060958
0.00959410719617267 0.013779717015080404 -0.019348906270729726 0.004027784386074099 0.0058981471611871126 -0.004188564154455551 0.0015164368324626898 0.008389913276639217
0.0017877703004706377 0.01093615530251619 0.00760710570076143 -0.016918426925365226 -0.006936553989769534 0.0044396934544711835 0.014771048388664765 0.004428686687740659
-0.005090448076098094 0.009258882611299535 0.006061666006607846 0.0024067628415501154 0.010489445294896687 0.0026496009188146604 0.013889186564317717 0.009614630653410668
0.0010768633748325057 0.005652134727265184 0.014047478378106997 0.009655980831979223 0.005832863125306065 -0.02668870708644963 0.008453070031159946 0.012027489346210585
0.010036271862895116 0.007378834353953311 -0.004063506422848016 0.002630942471626982 -0.0050722836320995545 -0.008878498080055726 -0.02027438797180834 0.00860482928625367
0.004618720175743059 0.009369685917231087 -0.007459292795086851 0.013093952800875787 -0.003689931453252697 0.0057869830733756475 -0.005642903003701905 0.008463529580942982
-0.002620488325950955 0.014079624344773079 0.0024482358258447164 0.004048883584946693 -0.006349832428169339 0.005170891140590206 0.006724847209735512 -0.00221631148947348
0.0023611798540750227 0.0031946848879532736 -0.004884207129860599 -0.009074162379228182 0.005818778782590572 -0.004290744365586543 0.00497367673565957 -0.004653988245124796
0.007948181399456956 0.010500308470987088 -0.02139403951117402 0.014811437692816872 0.0036826999127100835 -0.015212695944270582 0.005786131114280827 0.00787083787070959
-0.0065701839973540226 -0.01976702564107875 -0.002971912466280396 -0.000645974385498517 -0.011068648117103974 -0.012808642557666972 0.00022611722398836905 0.0009701844398952184
-0.0012552706355253734 -0.00375593078550214 0.005719449545254054 -0.004796098343884104 0.002028860668562955 0.025779085554163684 -0.011255808441322191 0.009251294500288726
-0.00044151158332244797 -0.00030458070872446387 -0.012500530029054364 0.0004962055783194099 0.0045709022997388335 -0.003896499229227195 0.007644762080026991 0.011388628533764069
-0.031111606240091818 -0.005106039306757072 -0.019234463161586297 0.0019010104299569922 0.01042332348325623 -0.007944184463736056 0.00012674444990439903 0.0113463008332118
-0.0003389155268324178 -0.006559636131655766 0.004800989585756707 0.007045429672359337 0.005133220460456746 0.0037969318031850175 -0.00577098117128195 -0.0034164379161540134
-0.004365107878392509 -0.006484441309109161 -0.017057664630093755 0.006685025547552491 -0.02684238834435639 -0.017242810616134273 0.00012518134556666532 -0.007758712853977709
-0.001614189328279921 -0.00488191791158838 -0.00878363279232067 -0.01710104436892619 0.0064793776770541755 -0.009880175484582018 -0.012152406500953708 -0.013772249657162696
-0.015684904251291404 -0.004756989918864073 -0.002965049639341475 0.010236432200403335 0.005455124481878221 -0.007777990789470016 0.009914607812077371 0.0007974632754397451
-0.010321077354135079 -0.011646229526557568 -0.0038083277619371083 0.016341997735789777 -0.0027134621878502903 0.005481359969702999 0.0019510122794476148 -0.006007961480635544
-0.005566865041639632 -0.009462839695422593 0.00527780029010842 -0.00508733584446344 0.001359086241753809 -8.988098067011205e-05 0.016744359134282922 0.009168299632775821
0.0013477714473761552 -0.0023626007318134964 -0.0007002343996809897 -0.012054347940867436 0.006019305351142134 0.0001757609855957233 -0.004047026855434577 -0.004812155020674221
-0.012813223554404054 0.001399328114228236 -0.005699753080419478 0.010234465830046908 -0.005757310477141725 0.0012035936881563177 -0.00017000455022507546 -0.008601922335386565
0.01732795206997963 0.005629590114316666 0.0117934897814182 0.006826007722310786 -0.004567215649655241 0.005694196731083766 0.006763164578319368 0.015371954324449216
0.00490528562220992 0.006461508230130614 -0.01873451290896428 0.0016936915394184398 0.0017962846478533157 0.013415644452627922 -0.0036710815353691827 0.01782120780995021
0.012462598806338345 0.0010719481528816256 -0.004727687412087493 -0.00017834409347095088 0.004292982121561477 -0.016368515588830616 -0.0019322850591389183 -0.027690678397613935
0.011422031209461067 0.00434855822464603 -0.0002186091452841114 0.0056333341627217625 -0.017309980074524688 -0.004680751975802747 0.0008203321976704277 0.00338961970290349
0.007107215956871269 -0.006389663796594364 -0.006369660594438087 -0.006650705941877022 0.011877558994132594 0.0018414482080664242 -0.009038034796752512 -0.006797596076762651
-0.0007164702525296744 -0.007333093599440751 -0.00872735034394542 0.009205272042976756 -0.015343602535537234 -0.007698055845500344 0.00214799173014715 -0.01441686116241445
00000000: 1c1d b922 4c04 843f 11fc 0933 3a81 833f
00000010: d108 906d f85f 64bf 45c4 678d 0fd1 853f
00000020: b3f2 b14b 3f34 6e3f 5ee5 12ca d063 61bf
00000030: 8edf d1ec 22bb 563f 0ce4 68dd dccf 80bf
00000040: 27d8 db2a 341d 7b3f a032 b5f9 2bfe 78bf
00000050: 684d 1521 4bff 4b3f 5822 396f 1f94 8b3f
00000060: 17fe 83c5 1036 863f 3759 d30f d1cb 7dbf
00000070: dce1 0c01 d1e6 63bf d8e4 61eb befa 8c3f
00000080: 8128 0315 5118 563f 9b3f aaa5 06c9 833f
00000090: 8e0b 1d4b 4896 83bf b35f 8c76 344d 65bf
000000a0: 5780 1a97 6fb1 833f 4584 9c3b 8425 7c3f
000000b0: 3611 988e b451 813f ed15 b20b 0475 8a3f
000000c0: a4c9 5124 6301 31bf b58c 8dba 0221 713f
000000d0: 2262 4938 e6b6 433f a784 c2c1 e831 84bf
000000e0: d1af 578b fc02 913f 8187 95eb 9bad 81bf
000000f0: c592 a0ca 10a9 873f e811 f56e 6d42 903f
00000100: b7ef 2e67 bb28 3bbf 289f 7558 601d 66bf
00000110: 1371 d6a6 ff11 7dbf 9af4 4afe c1cd 683f
00000120: 196e afa0 8bdd 633f 15a0 30f7 ec7e 853f
00000130: a4a9 e1ca ca6c 753f 8da1 0788 d426 76bf
00000140: ea91 2245 13a6 833f 7f59 6c4f 8a38 8c3f
00000150: 43a9 951e 33d0 93bf 049c 6a23 707f 703f
00000160: a1f2 a0d2 a728 783f 7027 f820 0728 71bf
00000170: 7627 85a6 65d8 583f 9493 1d19 bb2e 813f
00000180: 6a3e 4abe 734a 5d3f e53e f2ea b165 863f
00000190: 2755 3be3 a028 7f3f 7378 6069 1053 91bf
000001a0: 6729 8708 8169 7cbf a73b 0f23 5b2f 723f
000001b0: 1a3b 0e8e 4840 8e3f 8229 cf87 d023 723f
000001c0: 3c28 24c0 b8d9 74bf e0b1 1a30 52f6 823f
000001d0: 7f5b 1f14 1ed4 783f 83ac 32f6 58b7 633f
000001e0: f645 f583 7d7b 853f 757c 66a9 9db4 653f
000001f0: 498a 7e10 ef71 8c3f 9e92 c1e1 d5b0 833f
00000200: 6ee2 893e b1a4 513f 5327 e65c b126 773f
00000210: e348 cda1 ecc4 8c3f 24bf 12cf 83c6 833f
00000220: 80ff d745 33e4 773f b86f 6fd0 4854 9bbf
00000230: 5252 adda d74f 813f 4de2 284b dea1 883f
00000240: b831 669b e58d 843f bfac b9c3 4439 7e3f
00000250: f16b 1733 e5a4 70bf fa08 f27b 7c8d 653f
00000260: 05f1 0dc5 acc6 74bf 51aa 21d7 e32e 82bf
00000270: 3a2e 2425 cfc2 94bf 611b faa2 689f 813f
00000280: 08c5 aa41 14eb 723f 41d6 b4f4 6930 833f
00000290: 91f0 b2a9 a28d 7ebf 87e7 7098 00d1 8a3f
000002a0: 0a87 51dd 583a 6ebf efb5 ae70 17b4 773f
000002b0: c1b7 af3d 031d 77bf fe2e 12b6 5355 813f
000002c0: e9b2 1af5 8f77 65bf 4d5e ce30 c7d5 8c3f
000002d0: baba c199 520e 643f 7290 52e9 8f95 703f
000002e0: 8738 d329 4802 7abf 73af 7085 122e 753f
000002f0: 5ff0 616d 838b 7b3f 6d63 ae2b f127 62bf
00000300: fd6d 1ac8 c057 633f 0951 ac63 bd2b 6a3f
00000310: 83f8 3b5e 7601 74bf b54f 4275 7995 82bf
00000320: 40a2 2e89 6ed5 773f 9c6d 9ceb 2b93 71bf
00000330: bf81 ba2e 475f 743f b3c2 f074 0f10 73bf
00000340: ba01 63d9 2247 803f 5bae d88b 2f81 853f
00000350: 3f8a 1eb0 51e8 95bf b1a7 fa83 7555 8e3f
00000360: fb4c f475 2e2b 6e3f d35e 847c d527 8fbf
00000370: f7cf 7fbe 32b3 773f a67a f9f9 951e 803f
00000380: 2c7f 5b56 56e9 7abf 53a6 aba2 ce3d 94bf
00000390: 3f0c 2d5b 8d58 68bf 0df0 0c6e d32a 45bf
000003a0: 4d22 64cd 28ab 86bf 6d73 21e7 6a3b 8abf
000003b0: 3c02 082a 3ca3 2d3f 1246 6038 7fca 4f3f
000003c0: ca04 f194 fc90 54bf a001 79fc c1c4 6ebf
000003d0: 83c2 f70b 476d 773f b4ec 90d8 12a5 73bf
000003e0: 8f1d 0747 d49e 603f edf0 8025 d565 9a3f
000003f0: 2706 2a09 490d 87bf 8361 98ba 57f2 823f
00000400: c02b a9cf 55ef 3cbf cbbb d62e 04f6 33bf
00000410: 7777 42bd e099 89bf a693 905d 7942 403f
00000420: c1da 3f3e f0b8 723f 0afa 4418 8deb 6fbf
00000430: a821 e931 1d50 7f3f 6e5c cad8 eb52 873f
00000440: c713 4f8d b8db 9fbf 4192 5afd 11ea 74bf
00000450: e5c5 f0f8 32b2 93bf f2b6 1068 6a25 5f3f
00000460: 7349 cfcb d258 853f 189a b863 0a45 80bf
00000470: 5c17 da88 d69c 203f 1be3 12b8 ba3c 873f
00000480: d608 961a 0f36 36bf f3c2 8bea 46de 7abf
00000490: 8aef 25d4 33aa 733f 8cfe 7620 abdb 7c3f
000004a0: 9b5b 0360 9206 753f 762e 6f3d be1a 6f3f
000004b0: 8a03 58f6 4fa3 77bf 4c5b cc23 cafc 6bbf
000004c0: 85a0 4cb9 25e1 71bf def1 aff5 6d8f 7abf
000004d0: 48f7 ed7e 9077 91bf a537 98e1 c161 7b3f
000004e0: 6598 5730 927c 9bbf 96ea bf6e 19a8 91bf
000004f0: aef8 0f92 6368 203f b060 789f 99c7 7fbf
00000500: 890b f897 6672 5abf c73a 5adc 0fff 73bf
00000510: 522b aa3c 27fd 81bf 94fd 2aa9 ef82 91bf
00000520: e5c5 8ab3 1e8a 7a3f 581f aeb4 0e3c 84bf
00000530: f512 ea63 5ce3 88bf ae79 f50e a034 8cbf
00000540: 7864 331b b40f 90bf 7211 10c2 107c 73bf
00000550: 9572 6ce7 284a 68bf e745 3aac d6f6 843f
00000560: 6da6 ecd3 1c58 763f 501c 1c81 d0db 7fbf
00000570: 21be 7122 1c4e 843f bb00 0958 9b21 4a3f
00000580: 6760 908d 3723 85bf f795 8177 fad9 87bf
00000590: 5a39 1466 a432 6fbf 155c 4ee7 f4bb 903f
000005a0: ff4c 62eb 8a3a 66bf fb6d eb5c 9f73 763f
000005b0: 29ee cb7b 23f7 5f3f 8806 33e1 cd9b 78bf
000005c0: 16ae b8f4 47cd 76bf f72d 27d8 4061 83bf
000005d0: 2ddc 40ba 2c9e 753f 1e3a 3651 75d6 74bf
000005e0: 4a5b 7dbd 6b44 563f 2167 737d cf8f 17bf
000005f0: 9534 7feb 6e25 913f 1f5f a958 d4c6 823f
00000600: 635f 7e92 f614 563f 0c79 0d9c bb5a 63bf
00000610: 771a 4fec fdf1 46bf 72ee 7131 f3af 88bf
00000620: f270 0bfa b2a7 783f 7565 be5e 8f09 273f
00000630: 8d8d d77f 9d93 70bf 7c45 fe06 e9b5 73bf
00000640: 7be2 fac0 d13d 8abf 5fbd 2a1f 35ed 563f
00000650: fff8 35d1 9f58 77bf aab3 41c0 cef5 843f
00000660: ba57 6543 fa94 77bf 18b9 cfe1 3cb8 533f
00000670: 099e 7ef7 6748 26bf 71de e778 e29d 81bf
00000680: 85f3 c92d 6bbe 913f 2add e496 0d0f 773f
00000690: 61d0 5567 2f27 883f fc82 df7e 96f5 7b3f
000006a0: 0bb4 959d 12b5 72bf 25bb ca4b cc52 773f
000006b0: 72cc e62a b1b3 7b3f e3fc cac8 547b 8f3f
000006c0: 73ea 3295 9017 743f a0fb 7fe8 6177 7a3f
000006d0: d280 00e1 232f 93bf ca35 5d71 dbbf 5b3f
000006e0: 240e 47f4 296e 5d3f 162f 6e51 a979 8b3f
000006f0: b8de 54e4 d012 6ebf fc35 e002 b93f 923f
00000700: ae02 5fb2 fd85 893f b9d8 9d90 1390 513f
00000710: 6b49 21ed 565d 73bf 1b70 0819 3c60 27bf
00000720: 78dc 079d 8495 713f 6e68 8d7c e8c2 90bf
00000730: 70de ac48 97a8 5fbf 97ba 7cf8 f15a 9cbf
00000740: 85fb fc13 6f64 873f c4f2 c035 cbcf 713f
00000750: d129 5b42 4ea7 2cbf 37f7 f09f fa12 773f
00000760: 060b 4219 b5b9 91bf f716 82ca 1f2c 73bf
00000770: 7724 fdfa 71e1 4a3f b397 a238 8cc4 6b3f
00000780: 171f 9bc1 741c 7d3f 20f5 9e50 0c2c 7abf
00000790: e723 09bf 1217 7abf 1a34 4048 c53d 7bbf
000007a0: 5127 7dfb 4253 883f 10d8 2df5 972b 5e3f
000007b0: 1830 fa7e 8882 82bf 6c33 75cd cbd7 7bbf
000007c0: 7f55 ce26 307a 47bf 567a 0253 4e09 7ebf
000007d0: 2fbe 7622 a5df 81bf 15c1 00b3 36da 823f
000007e0: 3e5f be78 776c 8fbf 9e58 9621 ff87 7fbf
000007f0: 393b 7547 aa98 613f f2da a059 9686 8dbf
