lab4/code/trained_dbn/dbn.hid--pen.bias_h.npy (npy, 4128 bytes, 1 tensors)

array f8 [500]
0	0xbf7a53ea187c7415	-0.006427683292511884
1	0x3f8a50b578743755	0.012849252451384944
2	0xbf7844de7ac27096	-0.005925053654348164
3	0xbf22cfbbfdb9e7f0	-0.00014352006734324975
4	0xbf8c8fc1dbfcfd9f	-0.013946070219047977
5	0x3f8c35d7ce05d433	0.013774572348419145
6	0xbf6775eb11942d85	-0.002863844984522581
7	0xbf77089a0a3881cf	-0.00562343761296842
8	0x3f90450863fc9ef5	0.015888339140615455
9	0xbf6ecb8112125a24	-0.0037591477308283206
10	0xbf86752368a4e31a	-0.010965611105903817
11	0x3f8c273ff4b96f36	0.013746738105673378
12	0xbf916a70a54b76c7	-0.017007598961632533
13	0x3f90006924c1b19d	0.01562656676144202
14	0xbf60c90de971f66f	-0.002048995181722905
15	0x3f3978d99a4eb49b	0.0003886729485270219
16	0xbf8a4e2cda77b609	-0.012844419877150253
17	0x3f89c2b4bf6ab824	0.012578403560237268
18	0xbf915bb0a12558d5	-0.016951331935467124
19	0x3f870424c44eacfe	0.011238372078727906
20	0x3f90b6575f92d1a3	0.016320576866478153
21	0x3f8257cd15cd4689	0.008956529834594622
22	0x3f7f378b31cb8147	0.0076213300023655955
23	0xbf98274385f21464	-0.023587279367820804
24	0x3f7ade7c5b8fefc5	0.006559835216645331
25	0x3f8ddaf746250be1	0.014577800586840385
26	0x3f8c8b484fd25124	0.013937535224876792
27	0xbf4c8a0d7b69dd03	-0.0008709493475426436
28	0x3f73a72938ef24ba	0.0047980890512430655
29	0x3f5979233f57e741	0.001554760381053247
30	0x3f8c3dbbe46a23bb	0.013789623172913204
31	0xbf8f05f9b6df29d3	-0.015148116010000578
32	0x3f888a6375ff91bf	0.011982705153010252
33	0x3f8ce0d4d27f4217	0.014100706743108522
34	0xbf7c84ceaa3ac6f8	-0.006962592396733795
35	0xbf73fb8fb433bfb5	-0.004878579467216972
36	0x3f21d8c7fa6459d4	0.00013616028918113246
37	0xbf5c1eae819006de	-0.0017162994538470404
38	0xbf874bc904fe1a05	-0.011375017609464253
39	0xbf92126fa145b45f	-0.01764845296695616
40	0xbf802138f85d2326	-0.007875866965734678
41	0x3f8abeda8c125af3	0.013059337043427521
42	0xbf681ea8fd08ff5e	-0.002944307380204166
43	0xbf88a72a3a9ec7f1	-0.012037591852138237
44	0xbf6c34541248581a	-0.0034429208774424793
45	0xbf935ccb7d7f39fe	-0.01890867188904543
46	0x3f8b9af739c293a1	0.013479167413899708
47	0xbf6ee55191f34419	-0.003771457020413493
48	0xbf1aeb1b4d2fd3c7	-0.00010268549094390101
49	0x3f4dc39a928fee23	0.0009083275555207864
50	0xbf5c3e964f055da8	-0.0017239063127670682
51	0x3f931af10b5296b5	0.018657461467816733
52	0xbf788df4ce13b0c7	-0.00599475504825992
53	0x3f7d2369bb8cffcc	0.007113850610778582
54	0x3f7e6e770e5f886c	0.007429566443507434
55	0x3f46d024d7496572	0.0006961994063871392
56	0x3f7790782fc8a05b	0.005753011206742621
57	0x3f6174d922a5c2be	0.0021309128689427073
58	0xbf7ec1a7c432f34d	-0.007508902871617829
59	0x3f700d80a6814d7a	0.003919127026239417
60	0x3f61300ab383bef1	0.002098103428686098
61	0x3f9a195a8168617c	0.025487341068669775
62	0xbf83eedbe6216a1c	-0.009732931099439894
63	0xbf82ffb44ad93a5b	-0.009276779684254046
64	0x3f761a511930a70c	0.005396191397304195
65	0x3f69346d4f3edf88	0.003076756949635443
66	0x3f8b6055ff52f4e0	0.013367339949008572
67	0x3f8dfe4103aad883	0.01464510719720758
68	0xbf73c9ceaa2115ac	-0.004831130298105373
69	0x3f902bcc079b32ec	0.015792072262047194
70	0x3f73008265b2085a	0.004639157642602221
71	0xbf2f1e820043a7a8	-0.00023742043425239762
72	0x3f9dcacb4b73e027	0.02909391067530023
73	0xbf60a92272ced111	-0.002033774645008653
74	0xbf738cc853118ea6	-0.004772932546163544
75	0x3f93323a89e05adf	0.01874629465609245
76	0x3f797e69b89fb137	0.006224072430978381
77	0xbf701712cefe5618	-0.003928254576654598
78	0x3f71ae5b47f04e0a	0.004316670004317577
79	0x3f334739aad03d0d	0.000294162348667152
80	0xbf61d046b9afb9ac	-0.0021745091776132677
81	0xbf91966e2eef8e5f	-0.017175408949596235
82	0xbf901f2b23151735	-0.0157438984072293
83	0x3f731b5693da53fe	0.00466474360805069
84	0xbf821a94753fa88e	-0.008839759662766757
85	0x3f7343fe42b8df7f	0.004703515248870248
86	0xbf75ed47098bcc95	-0.005353238572513371
87	0xbf675480956bc412	-0.0028479110145487397
88	0x3f69c4ae44a517d5	0.0031455424952211244
89	0xbf754e248506dabf	-0.005201475767924789
90	0x3f7e987c9e03d68c	0.007469641481511535
91	0xbf356905e2f40e45	-0.00032669442857999705
92	0xbf84fcb798014384	-0.010247644735643886
93	0xbf82e5fb91a2e377	-0.009227719671217589
94	0x3f77c56f1b62046d	0.0058035221210285095
95	0x3f823ebd5abd54bc	0.008908728915836377
96	0xbf811b6b2fdc77cc	-0.008353078268154145
97	0x3f88a0596b02576c	0.012024591997299182
98	0xbf891420cdee7364	-0.012245422634629306
99	0x3f4698c0c2613ff2	0.0006895962913038274
100	0xbf873b126b8e0111	-0.011343139560040546
101	0x3ee831c8241fdde3	1.1536817627429612e-05
102	0x3f74a5782ef49fff	0.005040616480336268
103	0xbf8e7f95c5e00b31	-0.01489178667180155
104	0x3f6518b5f9f7326f	0.0025752596118080932
105	0x3f571240ef8daa9c	0.0014081606043087396
106	0x3f8e7669318f93b0	0.014874288392045049
107	0xbf895ddef423760c	-0.012386075807110174
108	0x3f65c6f7b4fbb2ce	0.0026583517100021497
109	0xbf85beae487713c9	-0.010617601000271553
110	0x3f889ba27b56281c	0.012015599621708666
111	0x3f8eecad047f0cbb	0.015099860858646222
112	0xbf7d965d57abb8a9	-0.007223477000236547
113	0x3f61b2e3ac191b91	0.0021604963992873445
114	0x3f6e314000115b3b	0.0036855936055348016
115	0x3f94193b19c8bd1b	0.01962749810098528
116	0xbf7e4398059a7175	-0.00738868125486324
117	0xbf742f34436690c7	-0.00492782988877511
118	0x3f50147fd546fab9	0.000981449925447171
119	0xbf48f8c91a3e2505	-0.0007620794244626311
120	0x3f907468e8c1b57f	0.016069068151798312
121	0x3f85f178ee1a9c13	0.01071447826991626
122	0xbf2ff9ff872782b3	-0.0002439617561114292
123	0xbf8389d67abf64e7	-0.009540248509369366
124	0x3f8e0b6357b8cfbc	0.014670158495483913
125	0xbf77cb2cd33fd53f	-0.0058089972480862
126	0x3f643fc0d0e7a204	0.002471806138818035
127	0x3f716c64333078cf	0.004253760725104707
128	0x3f87769960f7fdfe	0.011456678649664372
129	0x3f83c540a2b10ffd	0.00965357300277247
130	0x3f511d95036b06a7	0.0010446505745424302
131	0x3f79813abebbd231	0.006226758454194002
132	0x3f6af06bdb001c7a	0.0032884699394375968
133	0xbf96111d82282e6c	-0.021549664563322343
134	0xbf68f8dd7de8ce29	-0.0030483556759237818
135	0xbf95e90f4bb5d992	-0.021396864887230978
136	0x3f73a3aaed8606fe	0.004794757544347437
137	0xbf935c0f6bbba328	-0.018905869436738915
138	0x3f4a6986239eb864	0.0008060364700577358
139	0x3f920755f623c9ba	0.017606108806782685
140	0xbf52a4ce7b60ed37	-0.0011379257607718304
141	0x3f021b902d5b8727	3.453763717488198e-05
142	0xbf81582f977736c7	-0.008468982515207014
143	0x3f7fda9409d0d395	0.007776811861778384
144	0x3f9434479e18403f	0.019730681442581718
145	0xbf3714f1fe2ebde1	-0.0003522005846958426
146	0x3f8814d666111ef1	0.011758494367441115
147	0x3f8296c7485f40b3	0.009076649566765438
148	0x3f16468a9117c2a1	8.497448677481169e-05
149	0x3f7900c97a886691	0.006104266191437128
150	0x3f94c54afc449efb	0.020283862731189633
151	0x3f58bad05a72e668	0.0015093836498593308
152	0x3f30ff448e0746dc	0.0002593557710755931
153	0x3f83dc337f304e1e	0.00969734413050732
154	0x3f5c47a15f5ba9c5	0.0017260623839613226
155	0x3f24217d2262c7c3	0.00015358593481590134
156	0x3f82a9b776c6f374	0.009112771332064652
157	0x3f856569fef033a9	0.010447338192557458
158	0x3f75e698cf65cd96	0.0053468674799320905
159	0xbf941cd49fb9b5df	-0.019641229866854345
160	0x3f28da6f79f117a4	0.00018961535258393586
161	0x3f877bcd1b8b0728	0.011466600802467378
162	0xbf81b37aef14f81b	-0.008643112584305659
163	0x3f7c26aeaacb4375	0.006872827809915151
164	0x3f7c4469e904d3b3	0.006901181899867592
165	0xbf72fe6014d37c4e	-0.004637122457295707
166	0xbf93646d765964a8	-0.018937788341962275
167	0x3f666c29061b3805	0.0027371217009664072
168	0x3f41d30f9d8b9921	0.0005439592597127654
169	0x3f29ea0416b44ca7	0.00019770908270597584
170	0xbf874c9c1854343c	-0.011376590244731692
171	0x3f8e386ecf96b635	0.014756074628930008
172	0xbf56ebb5ea87a47f	-0.0013989712261895102
173	0x3f470110c92e25c5	0.0007020313226899158
174	0xbf8e041cbdb26cec	-0.014656281031696548
175	0xbf83b390ece9c4cc	-0.009619838933959811
176	0x3f81b0b48869fb51	0.008637819684052113
177	0xbf7c8f5b5089f5b8	-0.006972653100658581
178	0x3f7bf6902ea13f16	0.006826937877192815
179	0xbf822f47e15eb9a3	-0.008879243436095424
180	0xbf837aff62ad6ddd	-0.009511943053147337
181	0xbf7639c962870487	-0.005426203403147706
182	0x3f95c4e5acdf91f1	0.02125891559252752
183	0xbf489a09d03d58c0	-0.0007507846753280964
184	0x3f714ee1d1f6eeb1	0.004225618467383605
185	0xbf6fcb80a1e931c8	-0.003881217227251297
186	0xbf69d7d949c9af35	-0.0031546825323881763
187	0xbf781a334a822472	-0.005884361606271248
188	0x3f775b3b4be06757	0.005702239634070092
189	0x3f60da2940de796a	0.002057152340923786
190	0xbf73da640d3e6263	-0.004846945597727445
191	0xbf7ffbcb5de132e9	-0.007808489228477746
192	0x3f6150c04e90cf79	0.0021137004846653565
193	0xbf9067dbcb77f8ca	-0.01602118901609443
194	0x3f61fdfd0fe89396	0.002196306478497732
195	0xbf5b482a63f64fc8	-0.0016651548356536473
196	0x3f6fe83f2759e8c4	0.003894923541165248
197	0x3f796e6391b22b95	0.006208790723699749
198	0xbf8e941d783ccc6a	-0.014930944663865204
199	0xbf420091c6309bcc	-0.0005493842876419463
200	0x3f85a957b1b70571	0.010576901541642343
201	0xbf7e3f9f0672e496	-0.007384892646933447
202	0x3f912d7cc8a56777	0.016775083300081896
203	0xbf61581338e3aea8	-0.0021171927866044556
204	0xbf651c16130c3b5e	-0.002576869119713817
205	0xbf8bab938180eabf	-0.013510849370608978
206	0xbf7f64a04b745d90	-0.007664323951096633
207	0x3f6467de23e0523a	0.0024909342455521595
208	0x3f8c50baeaa94747	0.013825855528157084
209	0xbf928bc95ab99c58	-0.01811136833421431
210	0xbf792c2bcf141384	-0.006145640495792363
211	0x3f6f74552935b15e	0.0038396514225295516
212	0x3f91d030c6494383	0.017395746328762406
213	0x3f74fbf159e8beea	0.005123083856730418
214	0x3f6f51f712ca6203	0.003823263707385617
215	0x3f5627ba3cdfb217	0.0013522452095414744
216	0xbf8787ca2af25eae	-0.011489467082625406
217	0x3f8a3586ba8f1d3b	0.012797405784921714
218	0x3f5f14274157b967	0.0018968947746277
219	0x3f7a1dc6dbfcfc28	0.006376053613904843
220	0xbf89b3dd4577725e	-0.012550095255329182
221	0x3f65da340846b2be	0.002667523980753066
222	0x3f8a730c4fdd2791	0.012914749324085569
223	0x3f76262e839f406f	0.005407506652730472
224	0xbf8051ee312db432	-0.007968769908723503
225	0x3f8378a2fe39eb94	0.009507439978951905
226	0xbf8af90ae0238d00	-0.01317032333867596
227	0x3f6215c4243a98ba	0.002207644547371404
228	0xbf94fa1a8340ac24	-0.020485319386505677
229	0xbf82ceade3c92ff3	-0.009183271898244505
230	0x3f86ede1d7a963d7	0.011195911783191832
231	0xbf8f37bdcccf5551	-0.015243037045289983
232	0xbf8846680fb42771	-0.011853039721717558
233	0x3f6bf72be9a539b6	0.003413759009311702
234	0xbf856ff24c87f648	-0.010467427216094852
235	0xbf66c0a3a09ceda9	-0.002777404389147715
236	0xbf90bf8cb505d5e3	-0.016355703877214977
237	0x3f445a5df835e539	0.0006211241565516119
238	0x3f9b257450f48075	0.026510064545732754
239	0x3f64fe217b97a4bb	0.002562585254726272
240	0xbf90d4af609df3ca	-0.016436329147371066
241	0xbf5b9119c7479b81	-0.0016825439207594774
242	0x3f85b39fa2397175	0.010596511018939417
243	0x3f82943a1cae696a	0.009071783066066447
244	0x3f81f1a9fc3297f3	0.008761718758545789
245	0x3f635bb87695e26c	0.002363071708426914
246	0xbf81ad0e071fce47	-0.00863085707894763
247	0xbf8363d785c31101	-0.009467777032462711
248	0xbf7c30873825f4c5	-0.006882217598442601
249	0x3f857523fddf3be5	0.010477334199007824
250	0x3f8305a29844b1cb	0.009288091918812654
251	0xbf812ac489f65f85	-0.008382354221609276
252	0xbf94f6a16c7aa5d3	-0.020472070928610208
253	0x3f8948b13bd864b3	0.012345680846055229
254	0xbf78622cde35e278	-0.005953002229369113
255	0xbf42233f30042d61	-0.0005535181553865503
