lab4/code/trained_rbm/rbm.pen+lbl--top.bias_h.npy (npy, 16128 bytes, 1 tensors)

array f8 [2000]
00000000: 2ada 7565 3f78 953f 23fb 4de7 a451 4a3f
00000010: 7ac0 276d ec81 72bf 233c 39fc 5477 3e3f
00000020: 1b0e f972 2fb2 7abf ee96 fa97 ceaa 7ebf
00000030: 1f8b 8946 c4ec 20bf f022 e215 cafe 6e3f
00000040: dc9f d2b9 8721 913f d226 a866 87d7 8fbf
00000050: 5cc0 25f9 e94b 82bf 044c 90d9 9e9f 8fbf
00000060: 83cb f8f6 11c6 68bf 6519 2323 5b31 97bf
00000070: 1617 02a0 e2c1 80bf 2d29 0a56 b7dd 86bf
00000080: f3f3 55d9 a5eb 68bf 5a9a ea4f b6fc 853f
00000090: 9cc3 5f0f 71e4 603f 44fa f5e1 4fd6 6d3f
000000a0: 8c5c 6e09 150d 863f acdb 10df 7324 69bf
000000b0: 6f6a 13d0 7af1 52bf 8e70 89e2 8249 753f
000000c0: c558 de99 6118 85bf 926e 9995 6bd2 49bf
000000d0: b120 898e ee97 823f 3c55 49fb eaa6 83bf
000000e0: e8b9 2e9d a28a 7ebf 11d9 c1ea ca38 463f
000000f0: 1243 72b5 0a5e 89bf 92c2 1677 17a2 843f
00000100: 5eaa c42f cd10 4b3f bb4d f696 3247 85bf
00000110: e65f 0f36 8b23 713f 60b3 80d0 09d6 4cbf
00000120: ce62 f1f9 991e 893f 8511 0dc4 b639 793f
00000130: 95b9 b1fd aff2 813f c6ae 8226 b7df 92bf
00000140: d398 dd0c ee2d 803f bc98 9d8b fc36 6d3f
00000150: 3a15 2f4a c95b 90bf 6724 f37c f506 83bf
00000160: 5f54 9e9a b34f 803f ca85 d14a 9536 5a3f
00000170: 04e1 e774 5ac0 80bf 2912 3067 76d8 9abf
00000180: 9740 cf1d a927 98bf 5cd9 cc43 4349 573f
00000190: 1645 24ce f8db 793f 14d0 f79e 2565 61bf
000001a0: 1b3a 91cd dc0d 90bf ea08 9c24 23f6 92bf
000001b0: 60d0 18ab e4eb 7fbf 6781 a68c f9b9 94bf
000001c0: 6ee7 f77a b6f1 6f3f 85ee e83a ccff 713f
000001d0: d757 72f1 97bc 84bf fe8a 7546 3ed7 6e3f
000001e0: 5f3d 7802 385c 743f 06a3 fac9 f420 83bf
000001f0: f097 6d09 adb8 5f3f c8fb 6278 46b1 813f
00000200: c32c f614 43eb 51bf 4c3c 7eb6 c7a9 8e3f
00000210: d36d bc3e b960 9c3f cee1 21d0 8a0b 81bf
00000220: 8704 90f2 e19b 87bf fb75 9a7e 8dea 75bf
00000230: 2ea2 0a1c 5f92 83bf 0891 ba1d 5946 783f
00000240: cb2d c215 e91d 543f ba0d 5374 44c6 54bf
00000250: 58d6 455d 9e91 403f 458b ce20 1973 64bf
00000260: 002c 0313 a79c 92bf 3af2 a8c0 e8b0 5b3f
00000270: e8d8 e953 abf6 8e3f a530 dcf8 78e8 663f
00000280: b7e0 45b4 20aa 3f3f 0cd3 378c 8fb7 6fbf
00000290: e30c 2f91 0227 653f bf9c 28b2 fb2b 92bf
000002a0: 6c61 3684 2e16 dabe 5f75 747e 0dfa 373f
000002b0: faf5 df6e cb83 80bf bb52 8fc0 aae3 8cbf
000002c0: 3c5c a4d3 eca7 523f a793 9e70 559c 683f
000002d0: edb5 281f 9def 67bf db2f 5d9f 5264 68bf
000002e0: 2e28 c6d6 8762 7ebf 973d 6799 0f11 96bf
000002f0: dfdb 4946 8b04 593f 2edc fb39 eb04 82bf
00000300: a3b4 afff 4371 98bf ef42 c37b 21d3 87bf
00000310: 85b2 4b56 aade 863f ee51 b268 3cfc 4cbf
00000320: def7 74cd 824f 85bf 4781 8a61 ae53 18bf
00000330: 85f1 cb51 a6b9 763f acc2 4632 a382 4f3f
00000340: 3be4 0f6d dc39 863f bc60 f0ff 4b5a 903f
00000350: 53d4 4db6 fb57 75bf 51c2 fc42 b3be 80bf
00000360: 9cd8 b62d 1221 70bf f065 8374 cb46 90bf
00000370: 112e c4a3 4127 903f d8d3 6f8c 3283 95bf
00000380: 83e6 c1be 9308 75bf cdf2 64ae 4160 86bf
00000390: e50d 0a2c 7c02 773f b14a 56c3 fb19 89bf
000003a0: 66ae ffa4 f82c 11bf 1349 b43e 0b0e 3dbf
000003b0: af8b 255a 9bf4 913f 4d70 3958 9ddf 83bf
000003c0: 77d7 c858 f505 8fbf 03a2 3a8d 3bb2 903f
000003d0: 80be a7f0 e863 3a3f 2e77 95c4 429b 743f
000003e0: 0c71 2199 99cc 7cbf 9e0a 1f59 7cfb 80bf
000003f0: 4ecb e1a3 6e71 553f 6c28 3ecb af6c 66bf
00000400: b5c7 fb81 e043 873f c962 e6d8 a247 6ebf
00000410: 33f4 0924 803c 743f 4404 4e5e 626f 6b3f
00000420: dfd1 4159 b178 953f 42e7 0e41 c94a 52bf
00000430: 7353 e973 c51c 603f a5ac 5688 18c6 8cbf
00000440: 96e3 9f7d b632 80bf 1a5a 24ad 02fa 49bf
00000450: 3ab0 abe3 1765 87bf 23dc 268e fa66 743f
00000460: 0828 e008 d39d 84bf f032 59c1 e061 743f
00000470: db72 16a3 338e 74bf 6d95 b97c e772 563f
00000480: 4c09 ca79 3e03 93bf 3a63 5499 a4fe 7e3f
00000490: e91e 751f 627c 79bf f50e 7053 6a69 523f
000004a0: 1c04 eff8 c086 82bf c52a 0652 f201 893f
000004b0: 63e6 6215 dfe2 88bf d304 88d7 5dd6 7d3f
000004c0: 5110 e7b6 bb6e 823f ce79 cecd 3305 5b3f
000004d0: 6080 7fae 8508 6ebf c1dc 54ab 6a02 513f
000004e0: 4d75 6a25 d7a8 853f 3876 c84f 3c8b 813f
000004f0: 68a4 643f ae22 6e3f ea17 9f0f 74cd 503f
00000500: cc15 267f 26b2 753f faea d549 fcf9 4bbf
00000510: 30ce 3812 5703 79bf 7757 348a 63e1 853f
00000520: dd92 bf8a a621 63bf 81af d9be 4bd4 90bf
00000530: 8a95 567e e204 7abf 4976 4ba2 c5e6 39bf
00000540: 7e87 f2a1 30af 813f e7f6 812c bae1 8cbf
00000550: fb68 5982 3c1a 8ebf 01da 3a15 8c45 803f
00000560: 91da 2aab 34ab 70bf 015f 21e2 8945 96bf
00000570: 9804 e33b 0a9f 80bf 5ecd ad81 0d5f 65bf
00000580: 17df e7ad a0f5 68bf 16fb c5b8 2782 663f
00000590: 8cdf 2017 91b4 6abf c9fb 2677 9056 76bf
000005a0: 4b22 7845 6a1a 603f f25d 71e8 2342 85bf
000005b0: 6eaf c825 aef6 523f dcd3 1e4b 3e95 7e3f
000005c0: d29f 4821 812f 753f e1fe 4f21 77f2 8b3f
000005d0: 17f5 3acd a96a 67bf 5c5f 29d3 9cdb 86bf
000005e0: 7387 1276 4fb5 6dbf e001 3061 593d 7b3f
000005f0: c4cf 8589 b72e 90bf 31eb 7fa0 7c12 51bf
00000600: c724 3318 6721 65bf 482f 62d1 31cf 60bf
00000610: 12ef fd1d 8f50 6d3f c8fd c035 0dc3 7b3f
00000620: e7a6 6b3a 6741 8b3f e0a7 0e06 73c3 84bf
00000630: 0592 58f4 6b41 66bf 35c1 ba4c 2145 813f
00000640: 25e5 1a87 167f 763f 7540 576c 21aa 73bf
00000650: ac19 9cd2 fe2c 6b3f 7349 2eb0 1228 62bf
00000660: e082 a0de 74be 453f 2d7d 5885 ea6e 90bf
00000670: 4ad1 8d28 1fdc 833f f88a 778d afd4 863f
00000680: 13ec c7c5 dbbc 813f 755e 8c13 fd3e 74bf
00000690: a4f3 0b26 2776 7c3f 3aff d6bc 824b 8a3f
000006a0: 16ef f034 c115 5cbf 9542 9c19 ef64 87bf
000006b0: 9fb9 615e 0e8d 83bf 1e64 243d 13d8 35bf
000006c0: bc30 4de4 f411 90bf 1511 5a02 7db4 703f
000006d0: fad5 cd90 9d2c 763f 2506 21d1 e45c 9dbf
000006e0: 2386 68c4 e33e 893f a311 d4fc d892 523f
000006f0: 917d afdf 8c09 813f 27e4 6625 4d31 633f
00000700: b3df 726c 6c8e 573f 20bf 8747 f778 863f
00000710: ea49 82da 0fdc 7b3f 08f1 33a6 2ecc 5c3f
00000720: f243 5d01 f60a 7abf 57f1 b974 ae55 953f
00000730: 5bf6 510a 308d 3ebf 9550 40d7 b33a 77bf
00000740: e4cf 603a dacd 613f 1af3 983e 6fe7 6c3f
00000750: 8009 2794 3d4e 8a3f 1fdb 2bc1 8e26 41bf
00000760: 366f 6fc8 ccf0 503f 20aa 93a2 ef65 38bf
00000770: b13c 562a 748e 853f ee00 36f1 a961 84bf
00000780: dc82 40a1 65d8 543f 2c9a 0e26 f718 953f
00000790: c9ec 8171 f5a1 75bf 2e05 8408 bffe 873f
000007a0: 95bf d0fd 0d78 8f3f b7ad 3c19 29ab 6f3f
000007b0: 8eaf 2539 7b1d 60bf be5c 0428 a287 4abf
000007c0: 1e01 9704 f530 793f 69c1 04cc d304 8abf
000007d0: 3711 73a9 4aa8 8abf 7137 adfa a0e8 823f
000007e0: 5ab7 4b95 1919 7abf 2a1a 8e38 b9ff 93bf
000007f0: ee05 3f81 f61a 7f3f ccec e7e9 09df 82bf
0.020966520850800453 0.0008031897728953723 -0.004518435993745235 0.0004648764117733425 -0.00651758704003982 -0.007487113005174113 -0.00012912651006321497 0.0037836024267260335
0.01672946998283452 -0.015547807522142607 -0.008933856883885642 -0.015441170706287373 -0.003024134719248507 -0.02264921571693303 -0.008182306774198216 -0.011165077508185373
-0.003042053149953089 0.010735916437011262 0.002062054462833319 0.003642231007403825 0.010767139768900223 -0.003069139777405158 -0.001156206068393086 0.0051970589343818385
-0.010300409801669361 -0.0007880235018080264 0.009078849530070295 -0.00959571437230499 -0.007456431589999181 0.0006781569295657726 -0.012386401808073742 0.010074790307812696
0.000825977505461605 -0.010389704925535584 0.004184287828103072 -0.0008800075456797223 0.012265398922111894 0.006158555916787716 0.008763670854219177 -0.01843153164433777
0.007900104301097255 0.0035662586714578486 -0.01597513690264416 -0.009290616870560165 0.007964518695908916 0.0015999277050230292 -0.008179384892159643 -0.026216363952715014
-0.02358879322474702 0.0014212757952925736 0.006313297172043228 -0.0021234259399936038 -0.01567788128550705 -0.018517064198939538 -0.007793324695331533 -0.020240687570209383
0.003899437338756798 0.004394338392156198 -0.010125338607661334 0.0037647453606707284 0.004970759189304757 -0.009340202726279678 0.0019361200154093226 0.008638907002362375
-0.0010936884972092976 0.014972267395732562 0.027712721304039633 -0.008322796322531991 -0.011527791228220131 -0.005350640023292548 -0.009556525271663476 0.0059264641855956215
0.0012278343411108335 -0.0012679737567829878 0.0005056403411304962 -0.002496289328023068 -0.01817570737402363 0.0016901276564019866 0.015118921755157236 0.0027963984238166977
0.00048316286508721544 -0.003871708265928203 0.0025820779933113254 -0.01774590754407934 -6.219541379158841e-06 0.0003658564514397912 -0.008063878365642364 -0.01410611534257932
0.0011386692772867987 0.0030042332409316477 -0.0029218739303107284 -0.002977525112248342 -0.007418184872571882 -0.021549457300179844 0.001526962290112392 -0.008798444468523039
-0.023869574051719977 -0.01163316878265294 0.011166888006721063 -0.0008845610585859734 -0.01040556134705278 -9.279968106535196e-05 0.0055481430870226766 0.000961618123758686
0.010852548673925813 0.01596945523860492 -0.005210860491264918 -0.008176231843749411 -0.003937788972896563 -0.015895060526281257 0.01577475130129186 -0.02100829107435573
-0.005135132913090981 -0.010925782332031808 0.005617604300485611 -0.012256590746607317 -6.551997762443417e-05 -0.00044334196600560974 0.01753466356002392 -0.009703854803938006
-0.015148083469380442 0.016304903502403444 0.0004026836110417667 0.005030880748874185 -0.007031059258306504 -0.008292170972599874 0.0013087826223709578 -0.0027373727297730823
0.011359933821470361 -0.0036962681399014025 0.00494051032057734 0.003349010587442554 0.020968218872853824 -0.0011164632198714252 0.0019668442248907347 -0.014049712811205881
-0.007909227093465348 -0.000792743021778733 -0.011423288951356015 0.0049810206714289455 -0.010066651066171786 0.0049761561873082755 -0.0050184266159731495 0.0013701687447789893
-0.018567062552855604 0.007567065205216045 -0.00622213677645054 0.0011237657870432603 -0.009046084973194417 0.01221074402635248 -0.012151472892912801 0.007284514017102245
0.009000269431347048 0.0016491895578166662 -0.003666173073710907 0.0010381738369014545 0.010575943784085462 0.008566352066789226 0.003678646399880626 0.0010255463989650112
0.005296850564609778 -0.0008537752034237505 -0.006106701013368673 0.010683801322141069 -0.002335381772342478 -0.01643484451635358 -0.0063523147013361345 -0.0003952248101038764
0.008634929601899929 -0.01410241554571763 -0.014698479392951649 0.007945150754818721 -0.004069524514014448 -0.02174964373293076 -0.008115844681358106 -0.002608801250454525
-0.0030468118923144927 0.00274760969313038 -0.0032599290653045395 -0.005453647916907786 0.0019657207119545875 -0.010380058795063516 0.0011574459705440926 0.007466548284289023
0.005172256864661011 0.013646059707752513 -0.0028584782065467318 -0.011161065286770792 -0.003626494596191182 0.006650303973402022 -0.015803210991592 -0.0010420052585675239
-0.002579404217247647 -0.0020519230848260774 0.0035784526116325955 0.006777812577694893 0.013308340521195073 -0.010138414976456234 -0.0027167423711651506 0.008432636407946429
0.005492294310607525 -0.004800921019935446 0.003317353916716578 -0.0022163739208249044 0.0006635733273051246 -0.016048111332677074 0.00969719259749326 0.011147853378991254
0.008661000226302595 -0.00494288309052814 0.006948616909309733 0.01283933771890099 -0.0017141711030168086 -0.011422985047404391 -0.009546386962225038 -0.0003333136529746777
-0.01569349902574467 0.004078377072463964 0.00541364239767494 -0.028674674286099617 0.012326983863263646 0.0011336440105092847 0.008318996979084033 0.00234284465406322
0.0014377650093546468 0.010972911711149502 0.006801664283687428 0.0017576652106177666 -0.006358109434430924 0.020834661363993003 -0.00046617911204536116 -0.005671217444632633
0.002173353411331279 0.003528325342612948 0.0128445444905807 -0.0005233952564072975 0.0010339736779689363 -0.0003722868010088993 0.010525615255373518 -0.009951903985666335
0.0012722961882973205 0.02060304803640116 -0.005281409037816328 0.011716358611467994 0.015365704830486307 0.003865795393627382 -0.0019671827987419238 -0.0008096257952584713
0.006150204755101888 -0.012704519904759253 -0.01301630334490565 0.009232766771358066 -0.0063715934127069555 -0.019530195309494548 0.007594073209419501 -0.009214475107901875
