lab4/code/trained_rbm/rbm.vis--hid.bias_h.npy (npy, 4128 bytes, 1 tensors)

array f8 [500]
0	0x3f7a5ba49c24ba7e	0.006435053832588465
1	0xbf2015da6059d35c	-0.00012272158362560792
2	0x3f747a5c5b321a15	0.004999504820381269
3	0xbf7e73117a03cf9b	-0.007433956401872078
4	0x3f8254c4e3aa8bba	0.008950746724911574
5	0xbf5639aa9fa3ab25	-0.0013565222021109738
6	0x3f8a9cf22b0c8d75	0.012994663180114977
7	0x3f7d1dfcd63ee39c	0.007108676571015684
8	0xbf91e2c39de913be	-0.017466599000062415
9	0x3f8e0eae0d2ca2d6	0.01467643716530757
10	0xbf7e5e378c0e744e	-0.007414071064798368
11	0x3f90129561c87233	0.015695890515518406
12	0x3f747da11c87681f	0.005002621976439441
13	0x3f8a8b0494ca9693	0.012960468092681842
14	0x3f85ce3f872234db	0.010647293387842918
15	0xbf7204b191a83c0a	-0.004399007443239187
16	0xbf785183bb2a0a77	-0.0059371133562559
17	0xbf6eb2901522d51e	-0.0037472547638467543
18	0xbf6b9c771ff07c37	-0.003370506921342133
19	0x3f85b71f01c9ba6d	0.010603182069840867
20	0xbf6e540a90692ad5	-0.003702183373467486
21	0xbf7b1569be639d04	-0.006612217961652126
22	0xbf1c33379a8d859f	-0.00010757471922097924
23	0x3f81b1f567443aef	0.008640210355705473
24	0x3f808bdd1257289d	0.008079268572050597
25	0x3f822032512e0241	0.008850472547920709
26	0x3f888b1cb457f950	0.011984085324908605
27	0xbf746f9be54c0f24	-0.004989251105829404
28	0xbf7ee4a9398fcbbc	-0.00754228690583408
29	0xbf7da96e8b93caec	-0.007241660897522744
30	0xbf948ef1a5b253f2	-0.02007653783637759
31	0xbf394e269e1784aa	-0.0003861278802031557
32	0x3f5bacafc24f72c5	0.0016891209027029435
33	0xbf7326d0121fb90f	-0.004675686623143229
34	0xbf7b4d49d5607333	-0.00666550484859556
35	0xbf62e2f2f63882b8	-0.0023054833743717217
36	0xbf72fbbe0850a32d	-0.004634611429573704
37	0xbf6d345863776c95	-0.003564999231213737
38	0xbf827d83ff1eba90	-0.009028464530129982
39	0xbf88859eeeef0887	-0.011973611513784966
40	0xbf7c3010f9770860	-0.006881777102025394
41	0xbf66855ecb812eef	-0.00274914278637605
42	0xbf85e58159056fa7	-0.010691652802669994
43	0xbf78688ce0876f40	-0.00595908193687561
44	0x3f81caa3c57ca1fe	0.00868728586608913
45	0xbf86355205e10907	-0.01084388809625071
46	0xbf7fa774cef9cb80	-0.0077280581314082
47	0xbf934d4881d618c0	-0.01884949963052729
48	0x3f7da66002da6a48	0.007238745730911385
49	0x3f88aed77ee1bba1	0.012052234229683214
50	0xbf85c1ea97e1aaaf	-0.010623772392326229
51	0x3f86123e38b4e44d	0.010776983361767157
52	0xbf815d1aff3a71cf	-0.008478365816068227
53	0xbf9014621036632f	-0.015702755202798343
54	0x3f741fbb20313dce	0.004913073501554744
55	0x3f77462674de5771	0.0056821348388406
56	0x3f822d7138d5d892	0.008875736758209993
57	0xbf882310c8e62849	-0.011785632258369943
58	0x3f7eda1f4e3674bf	0.00753223637312067
59	0xbf5ec95cff1af293	-0.0018790634316438223
60	0x3f95cbb01166699f	0.021284819662108153
61	0xbf55e7ed612f6424	-0.0013370340500300582
62	0x3f3c877bf4313635	0.00043532158105538964
63	0x3f7070fb25a3cefc	0.004013997119034714
64	0x3f70d33d72366036	0.004107704185479169
65	0xbf83d42e8179bfb7	-0.009682048155099083
66	0xbf631468f980117f	-0.0023290682111129497
67	0x3f7c06375d615a85	0.00684186579572688
68	0xbf7f855e81c48451	-0.007695550124737841
69	0xbf932afc0a13d3f7	-0.01871866046436207
70	0xbf82f803d98df172	-0.009262113644347567
71	0x3f86d34c87133c24	0.011145208236852673
72	0x3f4b93db5357be8c	0.0008416005063604667
73	0xbf967abbc3dd5e36	-0.021952565984376636
74	0x3f8f86ada921a33c	0.015393597339611646
75	0x3f4f53840bcbdb7b	0.0009560007816550165
76	0x3f991ebf5eb4ce50	0.024531355052387405
77	0x3f7cdc31bc5915ea	0.007045931129657993
78	0xbf7217ac02cd1878	-0.004417106549970844
79	0x3f87a2288a59d9dc	0.011539761278282983
80	0xbf547376fe088e63	-0.0012482320818286922
81	0x3f950380e9a1fa68	0.020521177539644248
82	0xbf9110b6462dd3fe	-0.016665313752543646
83	0xbf775c5fe5b21abe	-0.005703329657200383
84	0x3f856ec6ceec781b	0.010465195836840071
85	0xbf50e1fbe24e2ba5	-0.0010304412655581599
86	0xbf475cedb4794924	-0.0007129822415186432
87	0x3f69ba8150882300	0.0031406903910958794
88	0x3f8d640bec5f37cd	0.014350979948996834
89	0xbf5e4b9a31effe10	-0.001849079686280567
90	0x3f786f1f4ba9f5ac	0.005965349434175076
91	0xbf414148d95a8878	-0.0005265813549224637
92	0x3f641d80edf9fb9e	0.0024554746776738875
93	0x3f4b06cf7434a1a8	0.0008247864683755173
94	0x3f4046d68b157f6f	0.0004967258047763166
95	0xbf8d6422ff432947	-0.01435115186213366
96	0xbf83aca85747c7a1	-0.009606661952577701
97	0xbf8948a0cced82e8	-0.012345558408641336
98	0x3f96fee776548d73	0.022456757161433537
99	0xbf88d15682ef0343	-0.01211803042485971
100	0xbf8186c53749bd70	-0.00855783534026841
101	0x3f703f0b34523623	0.00396637322149965
102	0xbf5a5409eeec3001	-0.0016069504742430853
103	0x3f717911973cf2cc	0.0042658507480239465
104	0xbf5e78b938133aff	-0.0018598374156685857
105	0x3f6b6bd5fea9263e	0.003347318609745269
106	0xbf84d579eee9299b	-0.010172798732260449
107	0x3f8f60da55735afe	0.015321450932260113
108	0xbf80539c85c65b6e	-0.007971976120456605
109	0x3f759ee24568464c	0.005278476592609115
110	0xbf87eb835c3cc961	-0.011679674389232177
111	0x3f87babaf30b9733	0.011586628477242655
112	0x3f3aeebf9bfa6349	0.0004109590335957159
113	0x3f60961966c3662a	0.002024697887560452
114	0xbf786fa5442e7f4c	-0.005965848514193638
115	0x3f3e6dc8972e2453	0.00046430728178187725
116	0x3f80a8818241e911	0.00813389948620061
117	0x3f6e93c420883001	0.0037325697524064343
118	0xbf6eb45e9f7a32fa	-0.003748116312470959
119	0xbf55860ec48a3971	-0.0013137001243737868
120	0x3f72d6a735512b0c	0.004599240453056163
121	0xbf6aa7bf531237e3	-0.0032538163000657024
122	0x3f5350a41d738457	0.001178894299123342
123	0xbf52a007a59ecf6b	-0.0011367869069376045
124	0xbf88c793d33c4461	-0.012099413761037238
125	0xbf9852f79f4ca643	-0.023753995035042285
126	0x3f7a5601e253cbbe	0.006429679259997321
127	0xbf80ffa4ac0efc13	-0.00830010080414748
128	0x3f7d31e945a457f5	0.00712767717256745
129	0x3f89363de5af17b2	0.012310489246271181
130	0xbf819d4b59feaf87	-0.008600796398091649
131	0x3f7b26fd52e50e9e	0.006628980203746386
132	0x3f83d2191e6a3797	0.009678074112595953
133	0x3f6fdb99021e0816	0.003888892025259781
134	0xbf853d4fc9f76ce5	-0.010370848990467649
135	0x3f92467bab16ca63	0.017846996610112586
136	0xbf64451d47c6c3f1	-0.0024743625528675863
137	0x3f92d459ebaed07a	0.01838818074220725
138	0xbf913ebc4ee7cf4a	-0.016840879741678173
139	0xbf752a864330ec43	-0.0051675076129483214
140	0x3f706f80e1838cdb	0.004012587967937987
141	0xbf97408e2151081b	-0.022707196029166803
142	0x3f77f69f1e72fa92	0.005850431021086637
143	0xbf6081bee5fac30a	-0.0020149925693079317
144	0x3f5e6e074a172143	0.001857287519998322
145	0xbf8665384196aa97	-0.010935248853305253
146	0x3f8c046db82a6437	0.01368032186774047
147	0xbf8602212b211438	-0.010746249321650678
148	0xbf82656d2cb86170	-0.008982518126729316
149	0x3f82af1edfb46a99	0.009123078538825257
150	0x3f66d0bd18a6fa68	0.002785081223208242
151	0xbf7d02846013e9ae	-0.007082478610067984
152	0x3f53789a01672f49	0.001188421627023
153	0x3f9289fbf0dbe3da	0.018104492736686108
154	0xbf6203651da67c92	-0.0021988844793692864
155	0x3f814b420b6f397a	0.008444324468567233
156	0xbf7f068edbe36ffe	-0.0075746136119185774
157	0xbf90668b7ac3e48f	-0.016016177528375194
158	0xbf861063071a4b1f	-0.010773442892320127
159	0x3f6d0c7017ebb91f	0.0035459698987018308
160	0x3f80ea293acd327c	0.008259126765232987
161	0xbf9134d304df3550	-0.016803071186406726
162	0x3f40e28d965ed00d	0.0005152884812020822
163	0xbf756cbbf2ccca76	-0.0052306501136621854
164	0x3f6f1e4512196bcc	0.0037986134564511383
165	0x3f8efe9c7ec2ad1c	0.015134070032522255
166	0x3f75e137018b7527	0.005341734759636985
167	0x3f87f71cff6a9260	0.011701799912153976
168	0xbf7418d913844d2d	-0.004906509355595373
169	0xbf8eecfa89f550b0	-0.015100438437606861
170	0x3f7553aef1f80f24	0.005206759814885751
171	0x3f9bdf8a17e50fa9	0.027219922741337808
172	0x3f922e18ed24ea70	0.017753972505696713
173	0x3f6a245d0962f8ec	0.003191167556990773
174	0x3f6df039e2fbb412	0.003654587802762518
175	0x3f7694c5a7d2b2c0	0.005512973873163574
176	0x3f83db0aa12f06b1	0.009695132297454863
177	0x3f9356b71766bca4	0.018885479739478087
178	0x3f8947165be873f7	0.012342619590578236
179	0x3f89295e4ecf6f33	0.012285935192202757
180	0xbf4203da5d474b0d	-0.0005497757179518684
181	0xbf63795b6695ffdc	-0.0023772034807620756
182	0xbf02fc9d1b2b46a8	-3.6214394091194535e-05
183	0xbf74a755835d8753	-0.005042394672132594
184	0xbf7c6d9f125c277f	-0.006940480588818575
185	0x3f7184bf7fb1531c	0.004276989023385604
186	0x3f8642b0b5211bd1	0.010869389083508015
187	0xbf878f630fe177f8	-0.011503957674161555
188	0x3f7489a302b3e655	0.005014073142996252
189	0xbf8331a6c2d983c7	-0.009372046300258575
190	0x3f882f981206fd15	0.01180952839865638
191	0xbf712a4d638172f8	-0.004190733241639981
192	0x3f8209c9543907dd	0.008807728655600694
193	0x3f83b60ac5c84ea9	0.009624561463204744
194	0x3f78e484dcd55e47	0.006077307696009954
195	0x3f786abcebfc76a1	0.0059611682661661345
196	0xbf68352456f7ea96	-0.0029550275573886993
197	0xbf82d6b2e8e258d4	-0.009198568088589466
198	0xbf88bd33dfd64798	-0.012079625385726975
199	0x3f562e1c7edbef44	0.00135376723068155
200	0x3f740c99a2d0433d	0.004894828930461168
201	0x3f45fe6a2b9d9b25	0.0006711977396037556
202	0xbf96b94ee2496411	-0.022191269456332267
203	0xbf81ad5697a5c045	-0.00863139772693001
204	0xbf813172327ba52e	-0.00839509216844422
205	0x3f8bdcc7f1821367	0.013604700143568583
206	0xbf74d14684d5aa17	-0.0050823931354480245
207	0xbf83d18942e2c175	-0.009677002290431539
208	0x3f8926b181a769c7	0.012280833024239336
209	0xbf933efe55cfa251	-0.01879498862027368
210	0x3f4a1478bcad9669	0.0007958974395989141
211	0xbf21f358b48392b5	-0.00013695199800802462
212	0x3f8044503c0885cb	0.007942797500677742
213	0x3f3c2e5f2de1d933	0.0004300100680504515
214	0x3f93a38ed53c91ac	0.01917861153118998
215	0x3f40890347aca09a	0.0005046144500271577
216	0xbf617da151adefe2	-0.0021351004374405716
217	0x3f7e1fa95b9c91a3	0.007354413560993231
218	0xbf5b456f6a00d518	-0.0016645038631513728
219	0xbf768748aeed67e4	-0.005500110549144541
220	0xbf83a145fba579bf	-0.00958494829381784
221	0x3f786575609276e5	0.005956133370231352
222	0xbf7b9fe3a1a28708	-0.006744279084303313
223	0x3f70e9466da4a9a4	0.004128718481562297
224	0xbf78b8a6de465851	-0.006035472706932125
225	0x3f65a2647ecbe4c5	0.0026409113692094943
226	0x3f647b9faf164cd7	0.002500354654964103
227	0xbf4ae683e119b2ac	-0.0008209365789305276
228	0x3f5974f80b68433f	0.0015537664709237146
229	0x3f84494e0b7cd4fa	0.009905442929815756
230	0xbf8a8bce966113de	-0.012961973156174918
231	0xbf95d17798a1b5d3	-0.021306866351030806
232	0x3f7f408f0418bac7	0.007629927307376056
233	0x3f210426af7b1d3a	0.0001298234199025113
234	0xbf5fdc57cb99b9dc	-0.0019446236969106112
235	0xbf69d9ae21f951c5	-0.0031555558232787295
236	0xbf293b43d8676067	-0.0001925010985377479
237	0xbf72b7e233e4defa	-0.004569896320667283
238	0xbf6a6eed6a9ac7f2	-0.0032267224349533602
239	0x3f8b978493f18240	0.013472591175912929
240	0x3f90ee3693332a2d	0.01653371118008289
241	0x3f84a5014f5c04ac	0.01008034728465853
242	0x3f8960d6492f3127	0.012391733272942474
243	0xbf9076c2443eff36	-0.01607802907506014
244	0xbf6cd843f9112312	-0.003521092185597382
245	0xbf74be5df01219fc	-0.0050643605656035505
246	0x3f738bac31479a87	0.004771874072025845
247	0xbf674c9c0ef493af	-0.0028441474929814174
248	0xbf77e771d291f072	-0.005835957164091453
249	0x3f830f6ebde8253e	0.00930677907037369
250	0xbf64d69ff63eb583	-0.0025437473541020674
251	0x3f91e5068528d086	0.017475225331694343
252	0x3f62398f79229581	0.002224712582647726
253	0xbf68102c2372141a	-0.0029373991088186393
254	0x3f90fa808981c76f	0.016580589668996944
255	0xbf9d64f621fe5837	-0.02870544989090026
