lab4/code/trained_rbm/rbm.pen+lbl--top.bias_v.npy (npy, 4208 bytes, 1 tensors)

array f8 [510]
00000000: b58d 4920 69e5 843f a7ec d280 4034 7f3f
00000010: c004 d017 a196 89bf 38ec e2ff 49e2 843f
00000020: 93b5 464b 6bb0 90bf 44b2 8d5b e88e 7d3f
00000030: be50 af44 f08a 8fbf b61a 1af9 6e6f 613f
00000040: 88ff 55c3 dc4d 5f3f 766d 1199 4606 7f3f
00000050: b187 bcd6 b3ed 783f b1e5 db76 f6f0 50bf
00000060: 8132 3876 bced 7dbf e37e 2d81 9768 88bf
00000070: f6d0 3eef 9945 893f afe1 6a78 825b 84bf
00000080: 0797 d5b2 7593 7d3f 4046 918e 60bd 28bf
00000090: af61 0244 1bd8 87bf 058c 64c8 73bb 723f
000000a0: d521 b7b3 df29 923f d01c 9b6b 07ad 503f
000000b0: 2916 38af a55e 97bf c9df aca4 d575 8a3f
000000c0: 1b34 f334 fdd7 783f d16f 3401 898a 623f
000000d0: f15d f3f2 ed31 813f a083 d8fa 8938 86bf
000000e0: fcd5 222d 5144 6d3f f890 0c9b 32b9 63bf
000000f0: 0870 b62e c44b 813f b3e7 ebe7 1329 7bbf
00000100: 15c8 5962 53a6 923f 3568 512a 518f 873f
00000110: d132 7d8e 0561 4cbf 9f90 1882 5057 843f
00000120: 2abe f198 fd54 8fbf 787d 9192 6818 83bf
00000130: a57c 1327 46a7 67bf 2fb6 4d79 b1bf 81bf
00000140: 0ed9 928b 8f68 893f 072c 294d bfaa 73bf
00000150: 1511 7498 2d55 803f 53ec bce7 fe63 6fbf
00000160: ce4d 16b5 d84b 5cbf 6844 f672 3a9c 42bf
00000170: 9198 35f0 dd60 8c3f 1605 11dc e395 87bf
00000180: dea3 3809 2b77 933f 05ce 46e5 5425 893f
00000190: e8b7 fd0c 2231 953f e0e3 0802 7640 8dbf
000001a0: e720 aa14 f61b 71bf 293b a42a 2438 703f
000001b0: 4913 5ccc a37a 8abf 7e78 91b1 70e4 703f
000001c0: d6c2 f8c4 4d76 7bbf 1e83 f441 dfb8 853f
000001d0: 362c 3261 374f 65bf a5f2 77ce 1d56 7f3f
000001e0: ff5e 0705 b1ba 863f d239 50ed cc57 79bf
000001f0: b500 0fd3 f15e 8f3f fc22 304e 57d9 32bf
00000200: 2fcd 6da1 ed01 823f 70aa 0448 5086 5dbf
00000210: c348 b43f 4089 7a3f a880 e262 aee6 79bf
00000220: be3e 3581 83ce 713f 5383 b9b7 e9e7 85bf
00000230: 035d 911e af0f 76bf 6f76 641f b5d8 843f
00000240: fcf7 11b2 de50 653f 84d3 e101 d092 743f
00000250: 541e 660e d50f 633f a404 82aa bda5 96bf
00000260: c3a9 77b5 90ae 6c3f e13b 4110 d3c0 6fbf
00000270: 0a9e 8c53 eefb 8bbf d22f 9e15 1029 673f
00000280: 7fc9 e957 b421 85bf d126 a9d5 64aa 8ebf
00000290: 4c29 663a 6453 843f 98c8 6cf2 238d 663f
000002a0: ced8 93b7 baf8 933f e582 ecf0 d1d6 853f
000002b0: 9315 5c76 8e9f 46bf 5e0f 6857 f8b8 7ebf
000002c0: 6a46 f4f4 0ff8 89bf f6bd ac9a 25b0 54bf
000002d0: 43e0 60e1 0873 443f 5b42 7891 4b49 913f
000002e0: a956 dda6 39a6 8abf 38c1 a898 f9b8 713f
000002f0: e233 f540 a744 41bf 9f94 a02f 4ca9 783f
00000300: b9fb daee b5c7 903f 8988 9edc 3acb 5e3f
00000310: 6726 fcdb fb74 863f d071 8238 e3a6 88bf
00000320: b7d1 5819 37c4 623f 516b 690a c72e 633f
00000330: e075 f635 2435 87bf 82c4 4514 80ee 80bf
00000340: 9e12 e641 681d 81bf 7a71 8654 05a8 6e3f
00000350: 4528 3c08 a714 9b3f f184 e2fa c13e 7c3f
00000360: 7f72 d0c7 767d 773f 4fa8 30a7 b2c3 73bf
00000370: b795 262e b855 7d3f 4876 8c38 95df 913f
00000380: 3523 a23b 57b5 7b3f 2a81 94e4 38fe 83bf
00000390: 6365 8c19 8c05 553f 680f 06df f0b5 66bf
000003a0: b2f7 e1d1 4beb 8c3f dfe9 b2da d835 5fbf
000003b0: a531 a0be 454b 85bf 3315 f57a 42d4 7fbf
000003c0: 306c fb99 a9d1 7b3f 8a85 8164 297d 5b3f
000003d0: ec0f 883e c12a 80bf dfc1 2b75 6069 763f
000003e0: caaf 89a3 6cea 8e3f b4c1 b98f f370 62bf
000003f0: 239a 4c29 f6a5 73bf 80a1 7b3e 5cd3 8dbf
00000400: 2402 16be c6aa 88bf dc4d ac04 d673 94bf
00000410: b374 e83e fdc2 773f 9caf 7078 9aeb 693f
00000420: 2a27 da36 744a 94bf afa2 8227 2363 74bf
00000430: 2bd0 684c 9312 81bf a47e 8db3 5556 803f
00000440: f12a d2f7 8094 703f de2d af78 e6c6 713f
00000450: 951a 31a1 0bfd 343f aa99 150e 52df 56bf
00000460: ccfe 45d7 8db8 5b3f da6e c828 724a 8abf
00000470: 9206 2813 01bc 87bf 28d6 6d3f 18d3 813f
00000480: 8eb2 1a07 bc68 68bf a563 b15e c5a0 49bf
00000490: 4514 c64d dcfc 853f ac6f cf20 114f 7c3f
000004a0: d61c 9764 0754 863f 63b1 d651 1a16 81bf
000004b0: 6af5 433b c47b 903f 783c 280e 0d8f 84bf
000004c0: 1bb5 00fd 23c9 713f 452e 24f6 189e 6b3f
000004d0: 5e3a 5360 2e00 98bf 3c01 755a 8928 893f
000004e0: 0a13 5d2c 5e36 90bf 084d a817 e9d5 343f
000004f0: 57e6 6584 a3ec 833f be88 50e7 91e9 793f
00000500: d376 9742 391b 8abf 603b f801 216d 853f
00000510: cf59 3e79 a307 753f 7224 6fef 2f59 6b3f
00000520: 095a 9e09 eec5 663f 9304 0e79 db1c 79bf
00000530: 4015 1aa7 15fd 953f 9661 761c bb8f 6cbf
00000540: 24ea 1fbe 6eb1 833f bce1 2ced 4611 783f
00000550: b84f 0a5d b7f2 76bf 7f57 fc1d af53 73bf
00000560: a42c a37e 8e6a 5dbf cea9 089e 326f 7dbf
00000570: fe0d 46d9 2684 70bf 4678 a380 9785 90bf
00000580: fc5a 85f3 874e 8a3f 13ee 1a3c 3e9f 713f
00000590: 2333 f982 8b79 7abf bbb2 3afb f19c 823f
000005a0: 5a2d 8f75 e109 7bbf 3d9e 5254 ab1f 743f
000005b0: 7061 6d44 5ac0 5abf 8040 1c5d 2494 46bf
000005c0: 6bdd 737e d331 82bf fadf 114b d432 953f
000005d0: fa60 5aca 1845 7ebf d3c3 a8dd 0722 7a3f
000005e0: 1cf7 922f 903f 8ebf 1cbf e4e3 2495 733f
000005f0: 75be 8966 d9ed 70bf b595 b4f7 c0d9 473f
00000600: b8c5 800c 1720 81bf 6d31 6402 7c18 95bf
00000610: 9556 d7aa 734e 8dbf 6191 3c9e 4f6a 353f
00000620: 8339 a675 a419 59bf b1fb 585a ac59 93bf
00000630: 152b 3570 ac3c 67bf 3b28 0885 9307 5b3f
00000640: ee73 35c6 f001 79bf 7bd9 19fc 2044 863f
00000650: 8eff 3e12 79ef 6e3f e71e 8bf2 9a6d 84bf
00000660: e160 2d1a d012 76bf 9745 ec65 1e03 23bf
00000670: 0e29 7f40 72ef 6fbf da4b efa1 0e0e 753f
00000680: 5eb5 dfd1 7e57 673f a412 784e 99ff 6cbf
00000690: a772 63eb 22eb 8bbf b00e e267 6d0a 8fbf
000006a0: 2320 4cbe 841e 71bf 5ac9 2fb6 0c94 833f
000006b0: f081 dfb3 af05 893f 61ad 0007 9e7a 653f
000006c0: f674 6deb e059 76bf 6dfe a09a 7261 6d3f
000006d0: e953 cbb0 fbc8 70bf bbf6 6557 739d 6dbf
000006e0: 251c a8f3 6396 80bf 0a53 9381 e632 6dbf
000006f0: 76d3 cbec ec6a 6dbf df87 2794 72ba 843f
00000700: 95fa 2131 d324 48bf 934b 49ae ffda 7fbf
00000710: 41aa 617b 1986 91bf 1581 7062 0621 923f
00000720: 1f8e 834f 1346 703f b339 0245 b701 20bf
00000730: 9eae 6d28 6f60 643f 74a0 af2b 7b73 933f
00000740: b323 b419 3591 81bf ec27 7831 2612 7a3f
00000750: 6938 e193 865f 8dbf 8cbf 79a7 61e6 55bf
00000760: 5755 33ce 893a 843f c964 6135 4f4a 783f
00000770: e054 742f 327e 793f 7200 e112 8db2 8dbf
00000780: 2d76 b3cf a90d 7abf 511d 3dbf c62f 743f
00000790: db89 dd94 47d8 5abf 49c7 2288 c7c8 673f
000007a0: 1ef8 0f58 204d 8e3f 0fac 3cbf 662c 863f
000007b0: 0701 30b3 14b2 53bf fefd 4c91 b0a3 823f
000007c0: 1e1b bfbb 9d63 723f e10b 79bc 83c0 89bf
000007d0: ff2e 3e9f 2b15 86bf 04c8 903b 0caf 873f
000007e0: fa0b cf7c 1598 753f 0099 6a0b 7a20 84bf
000007f0: 6ffa 7760 a511 743f 0f8b 2286 f0f8 743f
0.010203191087561384 0.007618190732667041 -0.012494333781435052 0.010197237130674094 -0.016297985524649738 0.007216365477557721 -0.015401722999662911 0.002128330940482338
0.0019106536759352106 0.007574344418653003 0.006086065764778257 -0.0010340124967441573 -0.007306801012884835 -0.011918243055049021 0.012339785207452252 -0.00994016580567422
0.0072207067108587325 -0.00018874934838435282 -0.011642659199694842 0.00457329967165077 0.017737861007647588 0.0010178158249106069 -0.022821987933659003 0.012920064056387919
0.006065358246996967 0.0022633243439837765 0.008396014191403874 -0.010850027053551703 0.003572615191923088 -0.002407645072155625 0.008445294070774892 -0.006630971677390396
0.018212607267237575 0.011503824333136329 -0.0008660580760789465 0.00993216416379311 -0.015298825483312479 -0.009323899243269138 -0.002887379662396566 -0.00866640712203112
0.012406465002964964 -0.0048015091620738975 0.007974964346893413 -0.0038318613641457415 -0.001727067592899856 -0.0005679402728892115 0.013856634038074385 -0.0115163613828622
0.019009277761288128 0.012278235671010948 0.020695240061677028 -0.01428310579022879 -0.004177056553665382 0.003959790492685391 -0.01292922942548959 0.0041241075606120985
-0.006704620158004734 0.01060652179745741 -0.002601249850675137 0.007650486404142375 0.011098273244825927 -0.006187248703112451 0.015317811254022077 -0.00028761273841886015
0.008792740334433972 -0.0018020423886563573 0.006478548976945389 -0.006323510357248242 0.004347337427432483 -0.010696245116550129 -0.00538605123536873 0.010178961773415566
0.0026020383380105355 0.005022823837966043 0.002326885343055621 -0.022116626293158817 0.003501207956778192 -0.0038761255582708686 -0.013664113926622274 0.002827197470599765
-0.010318192418002024 -0.014973438043984018 0.009924681694219693 0.0027528478707604213 0.019503514723475494 0.010663643040574164 -0.0006904073349864197 -0.007500619968144521
-0.012680172598751944 -0.001262699816560684 0.0006240647660495996 0.016881161454934773 -0.013012361912540031 0.004326796517986779 -0.0005269829434070251 0.006020829774603303
0.016386835769249795 0.0018795084783751767 0.010965316439541085 -0.012037062799486714 0.002290828337914354 0.002341641188917811 -0.011331828018962875 -0.00826740323893405
-0.008356871138638863 0.0037422279458054182 0.026445970418571347 0.006895787939499729 0.0057348861564859846 -0.004825303901308044 0.007161826566890842 0.01745446355481864
0.006764736894304947 -0.00976223418780416 0.001283060852250572 -0.0027723030581813697 0.01412066683064581 -0.0019049279897403943 -0.010397477035461853 -0.007770785988502826
0.006791746621924097 0.0016777900910017484 -0.0078940484245393 0.005471588886152705 0.01509556650236012 -0.0022511250552314736 -0.004796945159603302 -0.014563294083431044
-0.012044480014766164 -0.019973129306050427 0.005801190606260653 0.0031641022683483577 -0.01981526932517067 -0.004977357217435126 -0.008336210984545364 0.00797717050744435
0.004047874242256042 0.004340076712604694 0.0003202584641183529 -0.0013960172003294282 0.0016919503369478449 -0.012837306851955988 -0.011589058301072517 0.008703412471486052
-0.0029796287934316717 -0.0007821048469721549 0.010736199496714014 0.006911341578383839 0.010902459866782992 -0.00834293901683542 0.01609713184096987 -0.010038473124067901
0.004342213229432869 0.003371285202893567 -0.02343819106027422 0.012284348557500928 -0.015832396943795714 0.0003179258416434326 0.009728696325271331 0.006326265273886187
-0.012747237534252253 0.010462053177460795 0.005134237831859469 0.0033384262310148178 0.002779927174695777 -0.006131036106013304 0.021473253559198158 -0.003486504985357362
0.009615769555229532 0.005875851685054941 -0.005602566016609183 -0.004718479205413461 -0.001795424609144538 -0.0071861245383310745 -0.004032279732544717 -0.016134612299417726
0.012845098609131515 0.004302256683952804 -0.006463570563550988 0.009088411788377262 -0.006601219844877571 0.004913014655506806 -0.0016327744976561663 -0.0006890466267766154
-0.008884098335768717 0.020701710779093198 -0.007390114629423511 0.006380110479356343 -0.014769674732061193 0.004780906774882767 -0.004133080693108239 0.0007278625702481974
-0.008361988133489415 -0.020601213117559625 -0.01430979123226032 0.0003267712001948833 -0.0015319925356354909 -0.01889676381528788 -0.0028365486083762417 0.0016497555371892808
-0.006105366253305695 0.010872132962714378 0.003776298968631359 -0.009974680449331653 -0.005389035129006654 -0.00014505144186975342 -0.0038983565791329616 0.005140359075954637
0.0028493382405857933 -0.0035398477809869978 -0.013632080849157303 -0.015156607373007475 -0.0041794953620027135 0.009559726056953256 0.012217877079764045 0.002621945044685312
-0.005456808655108994 0.0035865057334659085 -0.00409792248384109 -0.00361511733643635 -0.008099346993743659 -0.003564310271580222 -0.0035910251084438306 0.010121245523752207
-0.000736811753327365 -0.0077772128612022704 -0.01711311164437235 0.017704105146664057 0.003973079139743456 -0.00012212145020780232 0.002487389664954722 0.018995213071236042
-0.008577742430604695 0.006364964668600575 -0.014342357051784842 -0.0013366655020057043 0.009877277951469905 0.0059302419741353385 0.006223865543934809 -0.014500715387953476
-0.006360686612621386 0.004928375583239956 -0.00163847914105785 0.0029033562760440207 0.014795544326258233 0.010826876364793873 -0.001202125754161955 0.009101275858141907
0.004489532609972339 -0.012574223698839706 -0.010782566830833227 0.011564345901295077 0.005271991668396753 -0.00982756945934371 0.004899641040081989 0.005120219752060575
