lab4/code/trained_rbm/rbm.hid--pen.bias_v.npy (npy, 4128 bytes, 1 tensors)

array f8 [500]
000000 11 84 a1 58 9f 7c 85 bf 4a a7 38 9c b4 66 91 3f
       -0.010491604702282971 0.016993352923385253
000010 63 47 fd 43 b3 28 5d 3f d0 2e 60 90 c9 d9 92 bf
       0.0017797232284988077 -0.01840891784381321
000020 5b ec e2 12 72 4a 98 3f 8c 23 4d 48 92 18 69 bf
       0.02372148742936662 -0.003063474376550029
000030 98 72 96 2d f2 dc 6a 3f ae 12 5b 31 ec 02 7e 3f
       0.003279183391624873 0.0073270059853639945
000040 f7 fc e4 50 8d f3 29 bf 9b bc d1 0a 1e 49 61 3f
       -0.00019799327896839029 0.002110060383123958
000050 62 02 74 19 f1 af 73 bf 17 07 2b 31 fd ca 6e bf
       -0.0048064630457252695 -0.0037589020879246304
000060 53 61 7b d6 26 98 62 3f 3e a2 e9 77 e7 02 84 3f
       0.0022698172141241506 0.009771164271300422
000070 81 5c e5 78 aa 0e 59 3f 89 26 93 dc 7e 6b 82 3f
       0.001529375531011984 0.008994093996437929
000080 69 ce d1 30 13 f5 87 3f 33 29 ff 6f 18 53 82 3f
       0.01169791214690648 0.008947554509991384
000090 e1 a6 ef 6e b1 ee 80 bf c9 90 6c 76 f3 96 83 3f
       -0.008267770956041644 0.009565259982601397
0000a0 8e b0 49 43 8d 99 8a bf b7 40 f6 d1 9a c0 76 bf
       -0.012988189331018665 -0.0055547759688040965
0000b0 16 1d c0 9d 87 95 33 3f ba d2 f3 9f 9b 59 61 3f
       0.00029882965986911933 0.0021179236933853403
0000c0 18 76 d4 97 14 99 8d 3f 7e 5f a0 37 7e d4 47 3f
       0.014452134021264704 0.0007272354407659024
0000d0 d0 3c 4a b4 a5 4b 3f bf b8 43 ce c0 95 52 42 bf
       -0.00047753139032464826 -0.000559161302236536
0000e0 9c 70 0b 1e a5 0f 61 bf 5c ed 69 7b ce d2 7f 3f
       -0.0020826554249265394 0.007769400187153632
0000f0 64 9c d9 3f 19 fc 7a 3f 68 ad 6b 64 8b d5 79 3f
       0.0065880762391322435 0.00630716753105829
000100 ae c8 b7 38 2f 56 8e 3f 7a d8 83 90 a4 f0 75 bf
       0.014812821310418247 -0.005356448011516796
000110 5c da 0d 85 4d df 79 bf 0c a2 79 6a d9 9a 84 3f
       -0.006316473781103751 0.010060976564276757
000120 87 0b 88 6b d8 88 8a bf f3 d0 05 b5 9c 50 8d 3f
       -0.012956324369047824 0.014313911699652659
000130 38 1e 45 4d a1 8b 5a 3f 49 11 f9 60 1c ba 78 3f
       0.0016202044690362249 0.006036864142121631
000140 e0 c6 d8 3f 05 93 88 3f f6 bb 9a a8 e8 e5 88 3f
       0.011999169360112416 0.01215726627864731
000150 3b 45 ba 09 c5 16 81 bf 4c f3 e6 1b 63 32 74 3f
       -0.00834421096741044 0.0049308654255895805
000160 33 3f f4 cc 08 61 74 3f c5 9d 61 ab 76 15 64 3f
       0.004975351693488328 0.0024516408694130487
000170 11 82 a6 1e 77 92 73 3f 57 0d 94 38 f3 2c 81 bf
       0.004778352080763174 -0.008386516727574884
000180 64 f8 07 07 4b ed 8a bf 72 73 2d 3c ef 0e 0c 3f
       -0.01314791312415426 5.3517032503980636e-05
000190 40 8c a8 b2 5f 8c 72 3f 18 44 e2 39 05 0a 8c bf
       0.004528402156696976 -0.01369098742387291
0001a0 37 13 96 db a2 9e 83 3f 6a 7f ce 0c 75 5c 80 bf
       0.009579918218841505 -0.007988848164870627
0001b0 80 be 8b 12 c2 59 6a bf 75 76 76 5b 16 27 92 3f
       -0.0032166281201780333 0.017727231342738087
0001c0 ac f5 10 52 9d 6b 8e 3f ec 79 8a 4e 6f b5 80 bf
       0.014853695933306842 -0.008158559402827024
0001d0 1c 5f f0 f8 01 03 81 bf 44 3f 19 7b f1 e8 6b 3f
       -0.008306517991556066 0.003406974451344443
0001e0 6a 48 17 8d a9 6b 56 bf 61 52 c7 b5 4e cc 8a bf
       -0.0013684421322648584 -0.013084998056833887
0001f0 b0 1b 14 39 e1 bd 6a 3f 2c c2 20 da d7 c7 86 bf
       0.0032643698583600597 -0.011123358101117274
000200 f1 d7 dd d9 66 c0 10 bf a3 03 22 b0 ce 70 67 bf
       -6.390216591775612e-05 -0.0028614079356547736
000210 84 11 f7 14 75 82 8b 3f ca 5f 5f 67 40 fd 98 3f
       0.013432421400360502 0.024403578099594182
000220 0a cc 82 03 5c 9d 2b bf 90 79 dd fb e5 51 8d bf
       -0.0002106833287648105 -0.014316365002454728
000230 95 f5 df 39 80 9a 48 bf 78 14 75 b3 bc df 87 3f
       -0.0007508398155093183 0.011657213427165511
000240 8e 91 ac 7e 97 96 8f 3f 24 0a f1 ac e7 a4 5b bf
       0.015423949769293423 -0.0016872656303951261
000250 97 89 d8 ae 0f 10 66 3f bc 56 05 95 a2 ce 92 3f
       0.002693205481379478 0.018366375298987533
000260 b0 f8 5b a2 71 d3 5a 3f 7c e6 b9 d5 54 fc 77 3f
       0.0016373262128009207 0.0058558763372446
000270 08 d9 c7 ea a4 0c 80 3f f0 74 e1 39 ad b8 31 3f
       0.007836616911828034 0.0002704070010447054
000280 1c 66 eb 8d b2 34 6f 3f 87 40 51 a6 9a dd 6f bf
       0.0038093078031635873 -0.0038898487569341586
000290 a4 0f 20 36 32 c7 86 bf 7c 08 d7 4c 12 3b 86 bf
       -0.011122123982211303 -0.010854857416124235
0002a0 5c 92 5b 32 09 34 42 3f 68 7a f4 1e d5 e9 6d 3f
       0.0005555195718583528 0.0036515390890053297
0002b0 9e e4 ef ce ea 81 92 3f bf f8 de 6d a3 8e 81 3f
       0.018073719864308495 0.008572842398163137
0002c0 28 21 c2 cd 19 33 8f bf 17 17 e1 e4 1f 39 90 3f
       -0.015234185783143575 0.015842913002663907
0002d0 f3 2b 3d 2e 66 8b 7a bf 4a 11 82 f3 67 ea 7b bf
       -0.00648059763245622 -0.006815343913448688
0002e0 3b 22 24 88 b4 bf 2e bf de 37 0e 03 ad b8 87 3f
       -0.00023459509618130474 0.011582709937808685
0002f0 49 47 2f 5f 87 a7 81 3f 46 59 d8 4b 27 f6 70 3f
       0.008620317070299104 0.004141000271849221
000300 98 ed 25 86 de 84 62 bf c1 37 ed 5a 38 52 83 bf
       -0.0022606226131622435 -0.009434166216717334
000310 2f 50 63 da 24 c9 70 bf 8e 07 dd 90 13 99 6a 3f
       -0.0040980758260112235 0.0032468206544828465
000320 bf 17 3d 78 b9 43 90 3f d3 d0 d0 b7 3b 6e 6e 3f
       0.01588334843042793 0.0037146726959012915
000330 9f 5f 02 06 41 1a 6d bf 8c 82 ea e5 58 77 75 3f
       -0.0035525579442711864 0.005240771539917543
000340 a3 e0 02 ee 65 59 83 bf 37 06 a4 46 62 8f 88 3f
       -0.009447857213999383 0.01199223306730622
000350 1e c9 11 6c e8 1c 68 bf cc 4d 5d 93 84 cf f4 be
       -0.002943471860413229 -1.984655064941696e-05
000360 e4 df c0 1f ad 02 4d 3f 0c 8c ce 03 73 b4 7f bf
       0.0008853288013659336 -0.007740449215734035
000370 33 f0 68 4b 49 8f 7f bf d7 1b ef 11 a8 92 4a 3f
       -0.007705007845796574 0.0008109398512424715
000380 1a 47 da ee b0 ba 72 bf 1b 3c dd 82 64 2d 49 bf
       -0.004572573799707569 -0.0007683506753241061
000390 df c9 63 02 c8 05 93 3f 08 d8 ec ac 90 1a 92 3f
       0.018576741357671508 0.017679462961687903
0003a0 63 f3 4f 17 de 41 82 3f 5b a8 25 1b 4c a7 5f 3f
       0.008914694868502776 0.0019319766257362067
0003b0 ca 30 9e 07 79 a8 5e 3f 12 97 03 10 da f3 93 bf
       0.001871221726534466 -0.019484908320826007
0003c0 2a e6 18 cd 3b bb 58 bf 8f c9 ba b3 b0 15 70 3f
       -0.0015094837184633871 0.003926935427147517
0003d0 0c a4 39 ec ad fd 75 bf b1 60 85 33 06 e9 74 3f
       -0.00536888063980091 0.005105041717193768
0003e0 77 39 83 05 0a 96 87 3f c3 7c 35 b5 f2 a7 7b 3f
       0.011516645711165492 0.006751964643029132
0003f0 6c 65 f1 8e 29 a5 6a bf 6a 34 58 e6 4c 9c 73 3f
       -0.0032525836646015074 0.00478773154237642
000400 18 ed ce 11 97 97 83 bf 2d 51 92 9d 07 41 83 3f
       -0.00956647894951472 0.0094013781511327
000410 7b 18 73 7e d4 2a 88 3f 96 2c 02 f4 20 04 93 bf
       0.011800441845832168 -0.018570437329384314
000420 3a 20 13 7d a9 7f 79 bf 42 45 c2 cc 43 a4 63 bf
       -0.006225263657320618 -0.002397663518487165
000430 5b 95 c3 ff bd ff 67 bf cc e9 1e 9b 92 33 78 3f
       -0.0029295645637030083 0.0059085585398243705
000440 53 aa e5 e5 cf bb 7d bf f8 47 c3 e7 80 dc 8b bf
       -0.0072591897027033 -0.013604170868720886
000450 9a 8e 95 a9 09 ed 7b bf f1 cb ec ed 4f 81 78 bf
       -0.006817853683375974 -0.005982696747014225
000460 53 b9 0d 70 50 0b 63 3f 4f 5d 8b b6 2d 14 72 3f
       0.002324730973149483 0.004413775030762081
000470 e7 48 55 7c 47 ab 6e 3f 3a d5 9b 06 d9 28 87 3f
       0.003743781681501013 0.011308379663641167
000480 51 42 bc 0c 86 41 8c 3f 68 90 9e 0a a1 ea 91 3f
       0.013796851409581342 0.017496601365238368
000490 ed 3b 69 94 12 1e 67 bf b6 a8 47 b2 29 5a 70 bf
       -0.0028219569096914394 -0.003992236019693054
0004a0 95 fd 2d e5 4a 22 58 bf 04 9c c1 99 1f a1 8d bf
       -0.0014730197333106866 -0.014467474822778222
0004b0 8a 36 66 b7 a2 24 78 bf 61 26 f9 a1 07 2e 85 3f
       -0.0058943134412296014 0.010341701155215323
0004c0 24 89 e9 4f 6f 93 7d 3f 49 fb 9f c3 e6 71 5f bf
       0.007220682919611119 -0.0019192460590599805
0004d0 23 df 76 74 dc ce 79 bf d1 06 ec 97 ee ca 62 3f
       -0.006300793792824585 0.002294031145880428
0004e0 af 3a ea 36 c2 ae 91 bf 67 a0 30 28 86 df 63 3f
       -0.017268213845961607 0.0024259205106496487
0004f0 d3 41 30 c4 72 c9 71 3f 88 10 62 4f d7 51 90 bf
       0.004342506700610166 -0.015937198848874817
000500 16 86 9a a4 1c 26 91 3f 70 c3 26 66 19 9d 78 bf
       0.016746947809798206 -0.006009196486432042
000510 80 50 cd 8d c0 f8 37 3f c1 99 16 6b 4d 07 5a 3f
       0.00036577893279355483 0.0015886550939768625
000520 88 8d 05 87 01 84 79 3f d5 d1 9c 98 bc 90 6d bf
       0.006229406324880123 -0.0036090549009719455
000530 f8 1a 6e 0a 22 12 85 bf 5e 81 38 82 04 8a 46 3f
       -0.010288492148686754 0.0006878397002232741
000540 36 26 e4 df 59 40 68 bf 1f 5a 0e 65 66 81 8b bf
       -0.0029603724825662215 -0.013430404623972212
000550 3a 25 3f 08 e6 4a 79 bf ce c7 34 3b 12 10 2b bf
       -0.006174944461187432 -0.0002064726119015967
000560 20 3e b6 d6 9d 76 84 bf fa 99 1b 14 e5 8a 74 3f
       -0.009991868128763903 0.005015272939749677
000570 04 b2 4e a9 32 98 7a bf b6 91 79 62 ee ae 86 bf
       -0.006492803474355661 -0.011075842266287644
000580 63 9e b3 c5 42 8c 82 bf 76 10 e0 cd 73 09 54 3f
       -0.009056588800788029 0.0012229567432777955
000590 3b b3 c4 31 69 73 48 3f e0 3b 57 d4 b2 4e 8e bf
       0.0007461799282616263 -0.014798543076635029
0005a0 a9 55 3d 37 d7 7c 74 bf 65 c5 da 98 d4 b5 89 bf
       -0.005001869856490351 -0.012553845324279231
0005b0 b5 2d 33 34 7d a4 60 3f ef 4c 62 55 df 24 83 3f
       0.002031559504393344 0.009347672265255428
0005c0 a8 7c ce 67 21 82 8a bf e5 e1 3a 1b af 5f 8d 3f
       -0.012943516712594708 0.014342659014219225
0005d0 60 bf 05 a6 0f 40 8e 3f 28 0a 86 fc ae 2b 7e bf
       0.014770624403098231 -0.007365878620819312
0005e0 c4 a3 6a b5 82 e9 75 bf 53 11 22 a6 e8 2f 77 3f
       -0.005349646168419878 0.005660923752774788
0005f0 da 51 8a 98 7a 8f 95 bf f6 4e b6 38 a9 c6 51 bf
       -0.02105514102966475 -0.0010849621347447914
000600 47 5a d9 d8 1a e3 75 bf 44 a9 09 d0 f9 60 99 3f
       -0.005343537207940736 0.02478399593602744
000610 e1 f3 16 c5 74 50 94 3f ff f2 3f 9b 91 11 72 3f
       0.019838165788076515 0.004411286139654135
000620 7f 53 50 16 c7 dc 76 bf 40 ca 36 0c 59 80 87 bf
       -0.005581643757086917 -0.011475272832147998
000630 e9 e0 8b e8 a4 69 67 3f 0f 19 dc 03 e6 78 83 3f
       0.002857992254913556 0.009507939331808516
000640 43 55 96 95 53 be 7e bf 68 96 1d 8f 1c bd 53 bf
       -0.007505728245992774 -0.001204755677883718
000650 57 ac e7 0e 5e a4 74 3f d7 ce 81 4f f4 ab 82 3f
       0.0050395654820745905 0.00911703937183665
000660 3b 4c 83 9a 26 6c 6e bf eb 65 7c 5f 35 c3 92 3f
       -0.003713679692830788 0.018322786286352793
000670 1c f7 7e a0 b8 b6 84 bf c4 1e 98 de 90 ce 8d 3f
       -0.010114138029048862 0.014554149430309755
000680 a9 dc d4 a5 6a 41 6e bf d8 c6 27 e7 64 7e 5a 3f
       -0.0036933024372519285 0.0016170487766626242
000690 f1 5a a8 13 37 ee 65 bf 45 12 62 91 53 3f 74 bf
       -0.00267706639466369 -0.004943205296630786
0006a0 0c 28 71 1a a9 07 74 bf 8f 76 d6 71 7d f3 71 3f
       -0.004890118179057278 0.004382600801731264
0006b0 b3 e0 c0 49 d0 f5 82 bf 86 02 46 69 88 49 72 bf
       -0.009257914782310505 -0.004464657646508946
0006c0 a7 0a 22 e5 f8 f1 4c bf 04 06 dc 0a 4d 97 81 3f
       -0.0008833375270714442 0.008589364904312731
0006d0 b1 b9 3c 05 20 9b 73 bf 1f 84 de 0f 97 d5 92 bf
       -0.004786610679543933 -0.018392906516627613
0006e0 ff 3f 1f 87 94 44 70 3f c4 30 53 50 16 b0 87 3f
       0.003971653162764709 0.011566328359912233
0006f0 11 88 cf ce 2a a5 84 3f 4d fe 23 16 7e 97 67 bf
       0.010080656467781808 -0.0028798544527715354
000700 30 60 f5 89 04 10 32 bf 5f c0 62 1a 73 fe 85 bf
       -0.00027561293423650473 -0.010739230387429353
000710 61 a5 0c b6 f6 d4 93 bf 2d 9b a1 6c 76 d7 99 3f
       -0.019367079602635843 0.025235987072302613
000720 92 26 cc 64 e0 1b 7c bf 45 22 46 73 46 5a 6e bf
       -0.006862522638365969 -0.0037051559431271774
000730 1a 6e 8e 7d a1 47 84 bf 8d c2 b2 28 84 64 76 bf
       -0.009902249950577025 -0.005466953512197959
000740 d3 c5 bf b7 6e f2 84 3f dc 33 c5 54 d9 60 8d bf
       0.010228028280809298 -0.014344880961880628
000750 e3 84 6b 1d f8 c2 79 3f 08 99 71 58 5a fa 76 3f
       0.006289452742494125 0.00560984889225425
000760 7f c5 86 ba 83 8c 46 3f 58 af d6 57 76 5b 4b bf
       0.0006881373602053846 -0.0008348777625335297
000770 0c e6 95 ff 32 db 92 3f 3a 95 3f 50 a9 d4 46 3f
       0.0184143036362681 0.0006967379308632567
000780 c8 a7 33 fb c8 bd 6e 3f 2e 23 8b b0 d5 ee 6d bf
       0.0037526059546637326 -0.0036539243340921934
000790 7c 32 4a 16 25 9b 7a 3f 6f c2 d1 55 85 82 60 3f
       0.00649561392914377 0.002015362186789375
0007a0 97 a2 84 d6 7c 56 78 bf f5 d6 2f f6 b8 85 5a 3f
       -0.005941856048857239 0.0016187959924968663
0007b0 9a ac 30 7a 28 af 67 3f 04 e7 3c 86 da 46 89 3f
       0.0028911390850417497 0.012342173787704087
0007c0 c7 56 74 6d c8 68 62 3f ca 4b e8 c3 0a ed 7e bf
       0.0022472300148689037 -0.007550279666719237
0007d0 20 88 97 62 fb a3 3d bf fc 6f 0e 4e a2 0c 71 bf
       -0.00045227897007127545 -0.004162439349695287
0007e0 48 f7 b4 fd ea 5a 8a 3f c5 bd 9a a9 64 55 88 bf
       0.012868724696655356 -0.01188162462798815
0007f0 5c e6 47 1a 53 64 35 3f 75 a2 7e be 67 df 86 bf
       0.00032641438363576413 -0.011168299199043144
